vae/CIFAR_untarget_linf.pth (torch, 467446 bytes, 68 tensors)

0.conv1_1.0.weight f4 [16, 3, 3, 3]
00000000: 5dbc 5bbe e260 3abe 34ae 13be 23b9 92be
00000010: 271c df3c 68a5 c6be a9ec b2bd 5104 04be
00000020: aaf6 a83d 5465 29be 74bb 78bd a15f 9bbe
00000030: 9135 d9bd eac6 e63b b0d0 efbd 634b 3cbe
00000040: 801d 243e 61a4 0fbe bd81 ba3c 6cfa 8ebe
00000050: 77ef a7be 8b3b 8cbe 0558 6cbe 93fe c3be
00000060: fba8 bcbb 47ef 2cbd 7c9c babc c4d3 d7be
00000070: d341 53be 02a8 1abf 9bfb 88be fa99 d3bd
00000080: b08c 9ebe daf1 563d a90e 1abe c052 b5be
00000090: 0bd3 88bd 4a04 c63c 6c1b 60be 2b48 0f3e
000000a0: e916 253e dd6d 6ebe 39df 603e 3fbb 96bd
000000b0: 9f8c 25be 348e fabe 7311 08bf dc4a 00bf
000000c0: 933b 96bd 7a89 a8be ce83 07bf 998a eabd
000000d0: bc93 23bd e949 f5be eed4 2dbf 4476 5ebf
000000e0: ba02 a83e 0237 b33e a8a7 b1bf e5f9 0fbe
000000f0: 7497 2e3f f8e6 6fbe ea0a 003f 164f 1f3f
00000100: 7d78 523e be06 d93e a348 b13f 8b61 02bf
00000110: aadf bcbe 642b 043f 7dba c3be 6565 77be
00000120: aab4 033d 5464 c73b f7c8 8d3e 9d61 6e3f
00000130: f401 58bf 1e99 91be b77a d43e ba2a 76be
00000140: 6aed 4abe 6ae6 0bbe dddb 47be 4f16 dabe
00000150: f2da abbe 18a4 08be ff80 b7be e12c 1dbe
00000160: a1db c9be b33d 39be 6ca4 73be 8d37 81be
00000170: 9a79 e1bd e840 81be 8627 30be 0321 8abe
00000180: d1f7 72be 86a6 84be cf9e 2dbd 6f0d 1cbd
00000190: 86a7 19be 7ef4 16be c30f eebd e48e c5bd
000001a0: d291 123d 1e06 90bd 0d6a d73d ba98 ef3d
000001b0: cb6a 033f e974 403e 5b51 c7bd 5b58 9a3e
000001c0: 2b58 0fbd 4b84 1dba 8560 ffbd 30c5 6ebe
000001d0: 1550 aebe 82e3 0c3e d932 50be 5843 efbe
000001e0: 8e5b 973c bd95 b3be 93f9 05bf 6e07 4dbe
000001f0: ba15 61bf 9f93 f4be 0f52 c03e ece2 0dbe
00000200: 9f25 b2bd cc20 573e b28e bdbd 08e5 b2be
00000210: 7848 93be ad15 0ebf e05b a9be 8fca 81be
00000220: 1a4c 10be 51fd 7fbd fab9 59be d0a8 92be
00000230: 7aea 8cbe 639f 21bc 4afc 40be b8a9 82bd
00000240: ea45 83be c7fe 493c 55f3 a2be 96c3 6e3d
00000250: 54e6 b5bd e128 593c 0a39 edbc a3c7 fd3c
00000260: 1836 f3bd 2ba9 06be c0d3 6bbe f990 edbc
00000270: 5982 81be 97e9 8bbd a077 afbe 0ea0 803d
00000280: 77d2 1dbd c979 2ebe b4ae aa3e 0da9 3e3c
00000290: 79f5 583e 665d 513d 9393 fe3a 9405 50bd
000002a0: 55ec 623e 16f3 36bd 2eeb 803e a3bc 923e
000002b0: 2602 4b3e 20de 913e f730 323e a729 e33c
000002c0: 36f1 bf3e 62a2 453e 8fca c43d 7aaf a63e
000002d0: 71ca a63e eacb 433d 256e 813e b95b 053e
000002e0: 5394 8e3e d7ab 323e f148 4f3e 5589 cc3a
000002f0: d863 843c 737d 45be ffbb 58bd a022 b1be
00000300: 7cd4 f3bd 4046 003f da95 4d3e 1dc6 cb3e
00000310: 3e55 d43e 9c9a 9b3d a005 90be 11b9 a2be
00000320: 9f2f fd3d 6cea a3be fe5b 0a3e 91d5 ef3d
00000330: 50d1 1abe 7a88 81be 7369 01be 09e5 563e
00000340: 4498 0cba 4f44 073d 4642 e0bd acf6 d23e
00000350: a3f5 c03e 2623 dcbe 626c 70be 2f1f 403c
00000360: 302d 123e ca83 793e ced6 0abe 8138 49ba
00000370: 9e6c 28bd 00d0 923e 2abe e3be d7a2 e9bd
00000380: 6859 933e 1259 553e 78b0 073f ff27 f43e
00000390: 392f c43e 94b5 043f 2ea1 e53e 8845 b6bc
000003a0: 4dc9 f33e 3834 f63e 7c41 a9be aaf9 a2be
000003b0: bcbe d9bd c8cf dbbe f64f 4cbe cffe 02be
000003c0: 6c8c 8fbe c2c3 d7bd 6e95 ba3b b5cf a7be
000003d0: 225f 8abd 7216 64be 7a69 4dbe 80af e5bd
000003e0: 8de6 32be 1f15 92be 253f 3ebe b25e 6fbe
000003f0: 549d 933d 528a 76be 9db3 46bd c6f9 1dbe
-0.21458574 -0.1820102 -0.14421922 -0.28656873 0.027235104 -0.3879807 -0.087365456 -0.12892272
0.082501724 -0.1654256 -0.060725644 -0.30346397 -0.1060592 0.0070427554 -0.11709726 -0.18388133
0.16026878 -0.1402755 0.022766942 -0.27925432 -0.32799885 -0.27389178 -0.23080452 -0.38280162
-0.0057574487 -0.04222038 -0.022779696 -0.42153752 -0.20630579 -0.6041261 -0.2675446 -0.10332103
-0.3096671 0.05247674 -0.15044655 -0.35414696 -0.06680878 0.024171967 -0.2188546 0.13992374
0.16122021 -0.23284097 0.21960153 -0.07359933 -0.16166924 -0.48936617 -0.53151625 -0.50114226
-0.07335582 -0.32917386 -0.52935493 -0.11452217 -0.039935812 -0.4790795 -0.6790303 -0.8689921
0.3281458 0.35002905 -1.387929 -0.14060171 0.6819985 -0.23427951 0.50016654 0.6223005
0.20553775 0.42387956 1.3850292 -0.5093009 -0.36889392 0.5162871 -0.38228217 -0.24159773
0.032154717 0.006084958 0.27692387 0.93117696 -0.8437798 -0.28437132 0.41499874 -0.24039736
-0.19817129 -0.13662115 -0.19517465 -0.42595145 -0.3356548 -0.13343847 -0.35840604 -0.15349151
-0.39425376 -0.18089943 -0.2379319 -0.25237694 -0.11009522 -0.25244832 -0.17202577 -0.2697831
-0.23727347 -0.25908297 -0.04238778 -0.03809875 -0.15005311 -0.14741704 -0.116241 -0.09646395
0.035783596 -0.07032417 0.105182745 0.11699052 0.5133483 0.18794598 -0.09732314 0.30145535
-0.034996193 -0.0006008788 -0.124695815 -0.23317409 -0.34045473 0.13758662 -0.20331897 -0.46731067
0.018476274 -0.3507518 -0.52333945 -0.20022365 -0.8792378 -0.47768876 0.37562606 -0.13856095
-0.08698582 0.21008605 -0.092557326 -0.34940362 -0.28766227 -0.55501825 -0.33077908 -0.25349852
-0.1409153 -0.06249744 -0.2126235 -0.2864442 -0.2752264 -0.009864661 -0.1884624 -0.063800275
-0.25639278 0.01232881 -0.31826273 0.058291994 -0.08881822 0.013254375 -0.028957862 0.030978983
-0.11875552 -0.1315047 -0.23029995 -0.028999792 -0.2529476 -0.06831663 -0.34270954 0.06280528
-0.038530793 -0.17038645 0.33336413 0.011636985 0.2118739 0.051114462 0.0019422643 -0.05078657
0.22160466 -0.04466542 0.25179428 0.28659543 0.19825038 0.2848978 0.17401491 0.027729822
0.37488717 0.19300225 0.096089475 0.32555753 0.32576326 0.04780189 0.25279346 0.1302327
0.27847537 0.17448364 0.20242669 0.0015604893 0.01616089 -0.19286136 -0.052913662 -0.3459673
-0.119057626 0.50107193 0.20076695 0.39799586 0.41471285 0.07597849 -0.28129292 -0.3178182
0.12362599 -0.32014787 0.13511655 0.117106564 -0.15118909 -0.25299436 -0.12637882 0.20985807
-0.00053632655 0.03302413 -0.10950141 0.4120382 0.37687406 -0.42995566 -0.23478845 0.011726185
0.1427505 0.2436668 -0.13558504 -0.0007675961 -0.04111921 0.28674316 -0.4448102 -0.11408012
0.2877915 0.20834759 0.53003645 0.47686765 0.38317278 0.51839566 0.44849533 -0.022249952
0.47614518 0.48086715 -0.33057773 -0.31831104 -0.10632083 -0.42931962 -0.19952378 -0.12792514
-0.2803682 -0.10535385 0.005694083 -0.32775655 -0.067564264 -0.22274187 -0.20059767 -0.112151146
-0.1747076 -0.2853174 -0.18578775 -0.23375967 0.07207742 -0.24076203 -0.048511136 -0.15427312

0.conv1_1.0.bias f4 [16]
00000000: 0e35 b6be 0f1b 7c3d 7f5d 5c3f 3c2b ddbd
00000010: b921 d13e a579 18bf b585 193f 46fe 2f3e
00000020: 91e8 0f3d bbdf d3be 6705 aabe 6651 333e
00000030: 9ddb 2e3f 667d 913f 489f 3cbe 3204 4a40
-0.35587353 0.061549243 0.86080164 -0.10799262 0.4084604 -0.59560615 0.59969646 0.17186841
0.035133902 -0.4138163 -0.33207247 0.1751152 0.68303853 1.1366394 -0.18420136 3.156506

0.conv1_1.2.weight f4 [16]
00000000: 3b2d 823f f0bc 8c3f dee4 1140 9c99 913f
00000010: 6b2a 803f 5973 863f ce8e 983d a3d3 873f
00000020: 5101 023f ded0 753f c0bf 803f c9c1 113f
00000030: 639f 203f 041f a93f bf83 7f3f f6a2 363f
1.0170053 1.0995159 2.279594 1.1375003 1.0012945 1.0503951 0.07449113 1.0611461
0.5078326 0.9602183 1.0058517 0.5693632 0.62743205 1.321259 0.99810404 0.7134241

0.conv1_1.2.bias f4 [16]
00000000: b033 09bd 4e3d 273f 27e1 033f 0743 f0be
00000010: ab1c 03be 81f0 0a3e 330b ce3e b0e6 903d
00000020: 3952 7eba dc92 9ebe 9807 523d a34c 103f
00000030: 5f91 bc3e d9fe a23c ff37 8fbd 0767 f1be
-0.03349656 0.6532792 0.5151543 -0.46926138 -0.12803905 0.13568307 0.4024292 0.0707525
-0.0009701583 -0.3097142 0.051276773 0.5636694 0.3682966 0.019896911 -0.06993102 -0.47148916

0.conv1_1.2.running_mean f4 [16]
00000000: 0400 0000 c9a8 ac3b fa7b 763f f627 0000
00000010: 790c 873d 0400 0000 85f5 1340 4cb7 6b3e
00000020: ca79 573f 0400 0000 0400 0000 51e4 c23e
00000030: 5c72 c63f 36a6 c83f 0f9c b123 d1c9 e93f
6e-45 0.005269144 0.96282923 1.4335e-41 0.06594176 6e-45 2.3118603 0.23019141
0.8417021 6e-45 6e-45 0.38064817 1.550365 1.5675724 1.9256472e-17 1.8264714

0.conv1_1.2.running_var f4 [16]
00000000: 0400 0000 330b 9f39 f9bc 5d3e a101 0000
00000010: f95f e73c 0400 0000 e884 8e3f fd65 143d
00000020: 1fec 993e 0400 0000 0400 0000 cce7 d13d
00000030: 012d bd3e 89bc 373f d4d1 0f22 8f06 3c3f
6e-45 0.00030335187 0.21654119 5.84e-43 0.028244006 6e-45 1.113431 0.036230076
0.3006296 6e-45 6e-45 0.1024929 0.36948398 0.71772057 1.9491196e-18 0.7344751

0.conv1_2.0.weight f4 [32, 16, 3, 3]
00000000: ac85 abbc ca9e 0dbd c81c 633d 268d 483d
00000010: 80fb dabb cfe5 9abd 4ae6 32bd 7e50 e73c
00000020: 79bc b73c 60cc fbbd 12b6 26be 2792 49be
00000030: 5ca0 e73c 7ac8 34bc 1425 1dbe 98f1 013d
00000040: 666b 883d 9d04 a5bd b139 19bf e827 c9be
00000050: 887c 18be 22eb 303e 4324 00bd 5d85 21be
00000060: 92c2 7b3e 734e 333e 3640 983e 9b5c d0bd
00000070: 73a1 b43b efd0 efbc ccf9 2bbe cca5 263d
00000080: 220e 3cbd 06eb 76bd 5165 223d 4e7f 55bd
00000090: 4cd3 b83d 7761 233e 16f8 2d3e e2ea 23bc
000000a0: e4d6 c13c 83da 8fbc b078 2bbe 2415 40be
000000b0: 3b33 21be 1ea2 86bd 1e63 43bd 4d6b 96bd
000000c0: de64 d1bc 19d2 c4bd eb69 ccbc f9b6 cabc
000000d0: 0974 b83c 7756 a7bd 5b0f 8fbd 3b1f de3b
000000e0: 8c17 c43c fc93 5ebd cc35 16bc 443f b7bc
000000f0: e9bb b5bc 22aa 3cbd bed7 6ebd f499 a3bb
00000100: 46e2 edbc e61e 1cbe 2417 5dbe 3fe0 6ebe
00000110: 6283 ebbd becf 5c3d e81c 3e3c 83e6 983c
00000120: 466a 30be d35d 21bd 89c3 95bd 6fc9 1bbe
00000130: 0f3b dabc 4bdd f0bd 944a 58bd f6aa b0bd
00000140: b130 8bbd 8b58 13bd a45b c4bd 9241 2abd
00000150: 1736 3ebc 7828 a63d fafe 6d3b 47b4 5e3d
00000160: 1afe 1e3d 59d9 0c3c cd7d df3c eec1 7fbd
00000170: 59c4 663d 6dd1 e03c 243e 8ebd bf91 7a3d
00000180: b72a 083d 1398 d33c 8ef6 8dbd 0c66 0e3c
00000190: 4144 46be a426 23be 3d2a 4bbd 90f8 dcbd
000001a0: ad44 13bd 7f09 adbc 7b3c d93c ef0e 223d
000001b0: a95f 87bd 6bf6 1c3d 5e96 b23d dbc0 9bbc
000001c0: cb38 823d e95a eebb 0d5f 8f3d 704d 043e
000001d0: d345 4f3d 2791 903e b838 843e cfe1 0d3e
000001e0: 143b 88bd c484 2b3d 0d3d 0bbe c420 aabe
000001f0: 3e60 cabe 7bf6 efbe 2a51 0cbd d073 9cbd
00000200: 4187 983c a50b 7e3d 5590 66bd 0003 69bc
00000210: c0b6 6b3d 8879 743d 686c 383c dc96 83bd
00000220: 2c36 a43c e5f6 67bd 50cc 09bc 417e 9539
00000230: e3bf b1bd 0ba7 79be 7328 1bbe 9595 28be
00000240: 6b79 11bd 04ac 5d3d 1b91 1cbd af25 a73d
00000250: 4cc8 f73c a497 9abd 797f a63c 8276 173d
00000260: 2b03 0a3d e18d dfbb 1ec0 363d 8c3b 13bd
00000270: b762 9ebd f4bc 00be 5e13 f0bd a571 983d
00000280: 5316 0a3e bdab a5bb adcf 373d 7c0f 943d
00000290: 382e 6f3e 0003 71bd b8d1 1d3e cfe8 ec3d
000002a0: 7fc3 d63d fdb4 063e 8b2b 87bc 9e2f f0bd
000002b0: ecb9 a1bd 82ae e5bd 2c9d 043d 1aa1 84bd
000002c0: 5cc1 91bd 97ee 2b3e b34d 0d3e 16b7 173e
000002d0: 0467 39be 3197 37be 08a7 82be fb72 6c3e
000002e0: e830 483d 7368 2f3e 6f46 54bc 3411 a13a
000002f0: 3330 1abd 0ab7 b8bc 4273 953d 9442 03bd
00000300: b2e9 753d a4f2 eb3d af1a 233d 0fef 4cbd
00000310: efd5 40bd f0ea cc3d be52 1b3d 7d8f 163c
00000320: 74f7 fc3c 2d33 fd3c ac3e 413d c962 b5bc
00000330: 5578 b9bd 89cd 88bd 29bb 76ba c4ef 9dbc
00000340: 71d4 2c3a 368f 46bd 5008 dd3d da39 123d
00000350: fed6 c83d e023 123e b4e8 643e 9cd4 6e3e
00000360: 7a2e f5bc 90b8 31bd 0151 3d3d 0b7a cebd
00000370: 5f5f acbd fa6f b43c 96fa 333e 9edc 8f3d
00000380: af68 5a3e d0ba 0e3c 0d4a 9fbd 59d4 6d3d
00000390: a2f1 a83c 1feb 4cbd 26a9 cc3d 9885 7f3c
000003a0: bcf2 693d 1258 df3c e08a 26bd f308 ce3b
000003b0: 59e0 983c 80d6 163d 6fc3 243b e572 9e3c
000003c0: 396c 8e3d 5e10 abbc e41e 403d 284f a93d
000003d0: 5359 393d 2bfa 1e3d 11b6 35be ae9d 50be
000003e0: 9586 a0bd 53e6 d83d 1014 783e f036 3e3e
000003f0: 95e1 c93d 339c 883c 4fa2 c93d 98e5 30be
-0.020937763 -0.03457526 0.05544737 0.048962735 -0.006682813 -0.07563364 -0.043676652 0.028236624
0.022428738 -0.12294841 -0.16280392 -0.19684659 0.028274707 -0.011034125 -0.15346175 0.031724542
0.066611096 -0.080575205 -0.59853655 -0.3928826 -0.14891255 0.17277196 -0.031284582 -0.1577353
0.24585941 0.17510395 0.2973649 -0.10173913 0.0055124103 -0.029274432 -0.16794509 0.04068546
-0.045911916 -0.06028273 0.039647404 -0.05212336 0.09024677 0.15955149 0.16989169 -0.010004731
0.023662038 -0.01756025 -0.16745257 -0.18758065 -0.15742199 -0.0657389 -0.047701947 -0.07344685
-0.025560793 -0.096103854 -0.02495285 -0.024745451 0.022516267 -0.08170789 -0.06985351 0.0067786253
0.02393701 -0.054340348 -0.0091681 -0.022369035 -0.02218433 -0.04606069 -0.058311217 -0.004992718
-0.02903856 -0.15246162 -0.21590859 -0.2332773 -0.11499669 0.053909056 0.0116035715 0.018664604
-0.1722804 -0.03939612 -0.07312686 -0.1521356 -0.02663949 -0.11760958 -0.0528055 -0.08626358
-0.067963965 -0.035973113 -0.095877916 -0.04156644 -0.011609576 0.081131876 0.0036315308 0.054371145
0.03881655 0.008596742 0.027281666 -0.062440805 0.056339595 0.027443612 -0.06945446 0.06117415
0.03324386 0.02582935 -0.06931792 0.008691322 -0.19361974 -0.15932709 -0.04960083 -0.10789597
-0.035954166 -0.021122692 0.026518097 0.039565023 -0.066100426 0.03832094 0.087200865 -0.01901286
0.06358489 -0.007274021 0.070005514 0.12920165 0.0506037 0.28235742 0.25824523 0.1385567
-0.06651893 0.041874662 -0.13597508 -0.33228123 -0.39526552 -0.46867737 -0.03425709 -0.07639277
0.018619182 0.062022824 -0.05628999 -0.014221907 0.05754733 0.059686214 0.011256315 -0.064252585
0.020045362 -0.05663194 -0.008410528 0.0002851356 -0.086791776 -0.24380128 -0.15152149 -0.16463311
-0.035516184 0.054119125 -0.03822432 0.081614845 0.030246876 -0.075484544 0.020324456 0.036978252
0.033694427 -0.006822333 0.04461681 -0.03594546 -0.07733672 -0.1257208 -0.11722444 0.07443551
0.13485079 -0.005055873 0.04487579 0.07229516 0.23357475 -0.05884075 0.15412033 0.11567842
0.10486507 0.13154979 -0.016500255 -0.11727832 -0.0789679 -0.11214925 0.032376453 -0.0647604
-0.071169585 0.16790234 0.13799171 0.14815935 -0.18105704 -0.17928769 -0.2551806 0.23090737
0.048874766 0.17129688 -0.012956246 0.0012288452 -0.037643623 -0.022548217 0.07297374 -0.032045916
0.060037322 0.115208894 0.03982037 -0.05003267 -0.047079023 0.10005748 0.037920706 0.009189484
0.030879714 0.030908192 0.04717891 -0.022141831 -0.09056155 -0.06679828 -0.00094120443 -0.019279368
0.00065929355 -0.04847642 0.10792601 0.035699703 0.098066315 0.14271498 0.22354394 0.23323292
-0.029929388 -0.043388903 0.04621983 -0.100818716 -0.08416628 0.02202605 0.1757606 0.07024501
0.21328996 0.008711532 -0.07777796 0.05806384 0.020623032 -0.050028916 0.099932 0.015595816
0.057116255 0.027263675 -0.040659785 0.006287688 0.018661665 0.036825657 0.0025140902 0.019341895
0.069542356 -0.020881828 0.04690446 0.08267051 0.0452512 0.038812798 -0.17745234 -0.2037265
-0.078381695 0.10590806 0.24226403 0.18575644 0.098574795 0.016676044 0.09845411 -0.17275083

0.conv1_2.0.bias f4 [32]
00000000: d1a4 50bd dbd5 acbd 3664 c2bc 227e 17be
00000010: 2104 703d bc4e df3d 6ecb d3bc 15a6 843d
00000020: 0ed1 8d3d 5afc 313e afb2 1339 7cde 40be
00000030: e2e0 30be 1a31 eabc e7c3 063e 3498 043e
00000040: 2bca 303c 3605 483e 3473 413d 62f5 5cbd
00000050: 993d d8ba 49a7 4ebc 4728 843d 45da 2a3e
00000060: 7900 97bd 3a5e bdbd eead b2bd 0658 a93d
00000070: 4d59 c1bc e9af cf3b 6cd3 313d 774f 893d
-0.05093843 -0.08439227 -0.023729425 -0.1479421 0.058597688 0.10903689 -0.025853839 0.0647699
0.0692464 0.1738142 0.00014085577 -0.18834871 -0.17273286 -0.028587867 0.13160668 0.12948686
0.010790388 0.19533238 0.047229007 -0.053944953 -0.001649785 -0.012613126 0.06452995 0.16684826
-0.07373137 -0.09246488 -0.08724581 0.08268742 -0.023602152 0.006338109 0.04341452 0.0670461

0.conv1_2.2.weight f4 [32]
00000000: 0c91 893f 30bf 8c3f 9daa 7c3f 9670 6d3f
00000010: 911f 823f 8d94 1c3f b5b8 2e3f 6648 c13f
00000020: b8e6 953f 6749 8b3f 1219 853f d33c 373f
00000030: 205e 243f 9d4e 853f 0ad1 b93f de86 a63f
00000040: a51b 5f3f 193d 983f 4dcc c63f 95f4 4a3f
00000050: dabb 943f 58a6 913f a4ff 663f be00 823f
00000060: 0533 503f 67f8 803f af51 373f 4c14 703f
00000070: 5612 003f 1921 873f fac7 253f 7953 5d3f
1.074739 1.0995846 0.98697835 0.9274992 1.0165883 0.6116417 0.6825059 1.5100219
1.1711035 1.0881776 1.0398276 0.71577185 0.64206123 1.0414616 1.4516919 1.3009908
0.8715156 1.1893646 1.5531098 0.7927945 1.1619828 1.1378889 0.90233827 1.0156476
0.8132785 1.0075806 0.71609014 0.9378097 0.5002798 1.0556976 0.64758265 0.86455494

0.conv1_2.2.bias f4 [32]
00000000: d053 8c3e ca2d 323e a903 003e 4640 9b3d
00000010: 9da2 9a3d 80d5 1a3e 72ff 053c 2f9a fabc
00000020: 6672 433e 6b50 c03d bcd0 a3bd a7e7 ce3d
00000030: 69fe 8ab6 5d05 ba3d c1e4 07be d3ce 7a3d
00000040: 9cb0 183e 8660 e23d 50ca 8dbd 4881 6d3d
00000050: 23e1 803d 0c63 c13d 7135 24bd 5ad9 38bd
00000060: 9315 52bd f476 473e fc7e 4b3e 6833 a93d
00000070: c2d7 783e f8e0 f73d 4b52 35bd 04e4 05bd
0.27407694 0.1740028 0.12501396 0.075806186 0.07550547 0.15120506 0.008178579 -0.030591099
0.19086608 0.093903385 -0.07998797 0.10102778 -4.1423377e-06 0.09083054 -0.13270856 0.0612324
0.14911121 0.11053567 -0.06923354 0.05798462 0.062929414 0.0944272 -0.04009003 -0.045129158
-0.051290106 0.19478971 0.1987266 0.08261758 0.24301055 0.12103456 -0.044267934 -0.032688156

0.conv1_2.2.running_mean f4 [32]
00000000: 8821 213f ff8f f13e 8981 013f 1c3e f63d
00000010: 0f7e f03f 3991 f63f 27fe a33f 13ff d13f
00000020: be7a 1b3f 27b7 e93f a640 6f3f 26a3 7a3d
00000030: 3af1 9b3e caff e93e 5b3e 9a3f 7d5c fe3f
00000040: 62ad a33f 8d4e 823f 58cb 943f f88f c33e
00000050: 43c6 073e 592b d93e 3cd0 4c3f 409e fb3f
00000060: 44a9 d33e ed22 4c3f fb28 863f d2e3 923f
00000070: 850c 0740 a6b2 2d3f 925c 603f b026 963e
0.6294179 0.47180173 0.5058828 0.12023565 1.878847 1.9263068 1.2811936 1.6405967
0.60734165 1.8259019 0.9345802 0.061190747 0.3045748 0.45702964 1.2050279 1.9871975
1.2787287 1.0180222 1.1624556 0.38195777 0.13259225 0.42415884 0.8000524 1.9657669
0.41340077 0.7974079 1.0481256 1.1475775 2.1101391 0.6785072 0.8764125 0.2932639

0.conv1_2.2.running_var f4 [32]
00000000: 035c d13f e2c1 833f e74f d83f 06e2 b23e
00000010: 27d2 3640 1d17 8e40 e90b 0c40 4b51 4241
00000020: 935e f33f 0eca 5040 747e ea3f e5b8 e93d
00000030: b5aa 833f 2d05 9c3f 6c6a e93f 67f2 6440
00000040: d953 8340 c4b9 fe3f c29d 763f 4a0f 4d3f
00000050: c963 643e 60d7 963f b187 f13f 48b0 6c40
00000060: 30f6 663f caf2 1140 ae1a 1b40 6a49 e03f
00000070: ac12 6440 63b7 d33f 7ad9 bc3f 9615 113f
1.6356205 1.0293543 1.6899384 0.34938067 2.8565767 4.4403214 2.188227 12.144847
1.9013237 3.2623324 1.831984 0.11412219 1.0286471 1.218908 1.8235602 3.577295
4.1039853 1.9900441 0.9633447 0.80101454 0.2230369 1.1784477 1.8869535 3.6982594
0.902194 2.2804437 2.4235034 1.7522404 3.5636396 1.654034 1.4753869 0.5667356

0.conv1_3.0.weight f4 [32, 32, 3, 3]
00000000: b00b 32bd ea67 80bd e55f afbd 58c7 3cbe
00000010: 26c9 3ebe 7658 1ebe 42d1 8abe 54e0 54be
00000020: bb1f 0cbe 7f87 5f3b 9cce c13c b026 013e
00000030: 9007 9e3c 82c0 36bd 62bb 8f3d 64a1 8d3d
00000040: 99c0 af3c bd3b fe3d 64a0 e13d a121 be3d
00000050: d057 f73c 07c7 8f3d 1c72 383b c1d8 57bd
00000060: 7e2f fc3c 1c1c 413d 4fe2 223d 3d97 913d
00000070: e96a 003e c739 013e 8009 993d d0ad b23d
00000080: 0458 e4bb 2351 ef37 2c27 d5bc 490f 95bc
00000090: 4570 85bc a397 d33d f85d 823d d3a4 483c
000000a0: 6099 2f3c f0f1 e93c c8a2 a5bd 7104 42bd
000000b0: 99d0 26bd f43d b83c 6f5e 7f3d 4674 913d
000000c0: 685b 3ebc 7fb6 5c3d 3b22 8e3d 117c 983d
000000d0: fc10 1b3d 3fbc 123c 7f17 acbc fa81 a13b
000000e0: 29ac 78ba 8dc4 b83d 780d 803d e5d3 b1bc
000000f0: ef8d c83d 8d64 013e a773 b83d 851f 363e
00000100: cade 1e3d f19c 1d3d d364 823d 2d7d 21bc
00000110: 8d6a 70ba 15e1 dabd 180c 8dbd 12b7 07bd
00000120: 60fd c23c b7bd 793d 40df 4bbd 2741 d93c
00000130: 044d 953c 64a5 48bd 093a cb3d f4f3 e03d
00000140: 2890 743d 4f0a 9abd 8b34 843d 3758 c73c
00000150: 0452 94bd b622 41bd 6761 07bc c19c 03be
00000160: dd63 bbbc 3030 05be 6a8a 9a3d 13ed 0e3d
00000170: fc26 e4bc e449 023e aa70 b73d a71f 8b3c
00000180: c409 5abd 9106 113d d498 2bbc b084 0ebd
00000190: 7646 d0bd 2e53 8abd 3454 8abb 2b61 a5bd
000001a0: 3902 b7bd e5aa a1bd 9e31 06bd 2017 17be
000001b0: 1e6e 9f3a 7b39 1bbc 5fd0 1d3d 7015 b4bc
000001c0: 289f 2cbc 005e 7e3d 9302 d73c f8ad 4a3d
000001d0: 8de5 c43b 3d5a 763d e9fd ca3d 8e50 9a3d
000001e0: 06ca c33b 9862 c83c e10f abbc 806d 343b
000001f0: 1291 aabd 33d6 03bd 870b 083e 58d7 393e
00000200: 66bc 6e3d 8fa9 fb3d a76b f33d 23c4 c4bc
00000210: 1d45 e0bd 84f0 5fbd 0086 c5bc 58a3 043d
00000220: 0f42 aa3d 3b43 483e a427 9f3c 7b7a 2b3d
00000230: 121f 363d d435 26bd 58d2 9fbd 2225 4dbd
00000240: 3f65 89bd f9f1 093c de8d 763d 7c2d c5bc
00000250: e532 9ebb 5661 a13c 86d0 9dbd fe56 1bbd
00000260: e185 393c 6f2a 563d 1842 95bd a5fe 433e
00000270: e48b 67bd b750 43bd e520 203d 5541 21be
00000280: e0b7 ecbd b7d5 07be 95d1 463d 55ca 003e
00000290: 041c 263b dae5 c63c a5fc c43c 0423 f13c
000002a0: 49ed 913c 4ab6 b6bc b75d 0fbc 14b4 4bbc
000002b0: 5a3e 8dbd 6218 c53c 82b9 bdbd 5395 90bd
000002c0: 6155 28bb 66bf ed3d 320a 8e3a 6c19 57bc
000002d0: 9591 353d cda8 813c b7ac da3c e710 57bd
000002e0: d16e f1bd 54ed a4bd b50a 4b3c 3e5e a5bd
000002f0: 8658 eabd 405c 4ebc e288 6ebc 2ecb a9bc
00000300: e03a 04bd ca93 e7bd d386 4ebd c679 c5bc
00000310: 8233 b6bd 1cd2 babd bb76 843b bac2 72bc
00000320: bcf6 313c aaeb 78bd 6036 0b3d bb8e 853c
00000330: c197 833d 630e 463d ce5d 3dbd e1b9 813c
00000340: c2fe 3dbc d623 163c 3192 e5bd 0006 b2bd
00000350: abf2 65bd 7f87 b8bd 3665 84bd c80b 9cbd
00000360: 933f 0fbe 395e 28be fe52 41be d56f b0bd
00000370: 49fd 1dbe d5bd d6bd 84d8 05bd 9d52 13be
00000380: 66ca f3bd 2e37 57bd 3b82 253c 8de7 bb3c
00000390: dcb1 efbd ca02 dcbc 6cf8 a0bd 17ed b4bd
000003a0: f3ac debd 80e5 a2bd 3d7e 043c 6adc 983d
000003b0: f288 2d3d cb04 16bd bb3e c13c 7926 de3b
000003c0: 9800 cebd 4361 95bd 150d b5bd fdb1 91bd
000003d0: a6ca f5bd 124c 503c 1c4c aabd 9e94 08be
000003e0: 6a5a 6a3d 3bca d5bd d658 96bd 6aa9 aabc
000003f0: bb96 643d 9249 b0ba 1f3f db3d 52ac a33d
-0.043468177 -0.0626982 -0.08563212 -0.18435419 -0.1863142 -0.15463433 -0.27112776 -0.207887
-0.13683979 0.0034107862 0.02365809 0.12612414 0.019290715 -0.044617184 0.07018162 0.069155484
0.021454142 0.12413738 0.1101692 0.09283758 0.03019324 0.07020383 0.0028144186 -0.052696947
0.030784365 0.047145948 0.039766606 0.071089245 0.12540783 0.12619697 0.07472515 0.08724558
-0.0069685 2.8528802e-05 -0.026019655 -0.018195765 -0.016288886 0.10331657 0.06365579 0.012246328
0.01071772 0.028557748 -0.08087689 -0.047367517 -0.040726278 0.022490479 0.06234592 0.071022555
-0.011618473 0.05388498 0.06940123 0.07445539 0.037857994 0.008956014 -0.021007298 0.0049288245
-0.0009486103 0.09021864 0.06252569 -0.021707484 0.09792697 0.12636013 0.09006434 0.17785461
0.038786687 0.03847975 0.06366887 -0.009856504 -0.0009171151 -0.10687462 -0.06887072 -0.033133574
0.02380246 0.06097194 -0.049773455 0.026520325 0.0182252 -0.048985854 0.09923179 0.1098403
0.05970779 -0.075214975 0.06455334 0.024334056 -0.07242206 -0.047152244 -0.008262969 -0.12852766
-0.022874767 -0.13006663 0.07545932 0.03489406 -0.02785062 0.127235 0.08957036 0.016982866
-0.05323197 0.035406653 -0.010473449 -0.03479451 -0.10169689 -0.067541465 -0.0042214636 -0.08075174
-0.08935971 -0.07893924 -0.032762162 -0.14754915 0.0012163555 -0.009474154 0.038528796 -0.021982878
-0.010535993 0.062101364 0.026246345 0.049482316 0.00600881 0.06014465 0.09911711 0.07534896
0.005975011 0.024461076 -0.020881595 0.0027531087 -0.08328451 -0.0321867 0.13285647 0.18148553
0.05828514 0.122882 0.118857674 -0.024019307 -0.10950682 -0.054672733 -0.024111748 0.03238234
0.08313381 0.19556896 0.019428082 0.041864853 0.044463225 -0.04057868 -0.07803792 -0.05008424
-0.06708764 0.008419507 0.06019389 -0.02406954 -0.0048278444 0.019699734 -0.07705788 -0.03792476
0.011323423 0.05228656 -0.07287997 0.19140108 -0.056529894 -0.047684398 0.03909387 -0.15747578
-0.11558509 -0.1326512 0.048539717 0.12577184 0.0025346288 0.024279524 0.024046252 0.029435642
0.017813342 -0.02230372 -0.008750371 -0.012433071 -0.06896658 0.024059478 -0.092638984 -0.07059731
-0.0025685655 0.11608772 0.0010836779 -0.01312862 0.04432829 0.01582756 0.026693685 -0.052506354
-0.11788715 -0.08053079 0.0123926895 -0.08074616 -0.11442666 -0.012595236 -0.014559003 -0.020726766
-0.03228271 -0.113074854 -0.050421547 -0.024105918 -0.08896543 -0.091221064 0.004042474 -0.014816934
0.010862049 -0.06077162 0.033987403 0.01630341 0.06425429 0.048353564 -0.046232037 0.015835704
-0.0115963835 0.009163817 -0.112095244 -0.08692551 -0.05613963 -0.09010219 -0.06464617 -0.076194346
-0.13989095 -0.16442193 -0.18879315 -0.0861508 -0.15428652 -0.10485426 -0.03267719 -0.14386983
-0.11903839 -0.052542858 0.01010185 0.02293756 -0.11703846 -0.026856799 -0.07859883 -0.08834284
-0.10872831 -0.0795393 0.008086738 0.07463916 0.04236693 -0.036625665 0.023589483 0.0067794886
-0.10058707 -0.07293942 -0.08840386 -0.07114027 -0.12001543 0.012713449 -0.08315298 -0.13337943
0.05721513 -0.10438963 -0.07341163 -0.020832736 0.05580781 -0.001344966 0.10705399 0.07991852

0.conv1_3.0.bias f4 [32]
00000000: 8a75 253d e498 7cbb 46a8 423d a507 da3c
00000010: 7d54 dfbc dba3 85bc a3c1 993c f76d 803c
00000020: cb9b 1f3d 0a24 423d 3692 d23c 19da 3dbd
00000030: b76d 9d3d eb0a 8a3d 353f babd 2763 57b9
00000040: 3393 703d 0b5a bb39 791e a4bd 0327 e13c
00000050: 2ef3 96bd ecd1 21bd dbb0 4b3d b635 28bc
00000060: e32e 5e3c 980a c0bc 5444 c63c 7b6b 3a3b
00000070: d942 303d 59cc 0dbc 69a0 86bd 3dc3 03bc
0.040395297 -0.0038543278 0.04752376 0.026614973 -0.027261967 -0.016313484 0.018769091 0.015677435
0.038966935 0.04739765 0.025704484 -0.046350572 0.07686942 0.06740364 -0.09094087 -0.00020540935
0.05873413 0.00035734507 -0.08013625 0.027484423 -0.073706016 -0.039506838 0.04972921 -0.010266712
0.013560983 -0.023442551 0.024202503 0.002844541 0.0430325 -0.008654677 -0.065735646 -0.008042154

0.conv1_3.2.weight f4 [32]
00000000: 0d28 7d3f af1f 843f fbce 773f d15f b53f
00000010: 08a6 853f 3d0f 653f fe9e 563f f191 803f
00000020: 88ac 8a3f c8cf a13f d6ca 783f b30a 4b3f
00000030: 45b7 903f c3a9 723f bc2a 763f 2cf1 773f
00000040: b0ef 8d3f 4993 533f 28ed cb3f 1e9e 613f
00000050: b655 af3f 8c0f 7a3f 8f69 473f 67ce 4a3f
00000060: e378 4a3f 148d 393f 1c07 923f b14c 603f
00000070: 51e0 523f bf60 773f 25a9 4e3f 8636 4d3f
0.9888924 1.0322169 0.968002 1.4169866 1.0441294 0.89476377 0.8383635 1.0044538
1.0833902 1.2641535 0.97184503 0.793132 1.130593 0.94790286 0.9615896 0.96852374
1.1088772 0.82646614 1.5931749 0.8813189 1.3698032 0.9767997 0.77895445 0.79221195
0.7909071 0.72480893 1.140842 0.8761702 0.8237353 0.96632 0.80726844 0.8016132

0.conv1_3.2.bias f4 [32]
00000000: 10d9 593e 1a63 333e 997f a63d a987 5c3e
00000010: dde3 8dbd 4c34 693d d431 973d f44c 783d
00000020: c9f4 cb3d d1b0 5c3e 4511 223c c002 3b3d
00000030: 409f 703d 3574 5c3e 857b 9fbd 66e0 1a3e
00000040: 1dee 693e 8eda 2d3e b367 d93e 2542 c53d
00000050: 36e2 113e 9df8 1f3e 8dd0 093d 758f 9fbc
00000060: 12d1 263d 7495 523d fa8c 433c dcd6 3f3e
00000070: 7a7f 25bd d429 803e 28b6 173c 2ffb c13d
0.21274209 0.17518273 0.08129806 0.21536125 -0.06928227 0.05693464 0.07382551 0.060620263
0.099587984 0.21551825 0.009891813 0.04565692 0.058745623 0.21528704 -0.07787231 0.15124664
0.2284474 0.16977903 0.4246193 0.09631757 0.14246449 0.15622182 0.033646155 -0.019477585
0.04072673 0.05141206 0.011935467 0.18734306 -0.040404774 0.25031912 0.009259738 0.094717376

0.conv1_3.2.running_mean f4 [32]
00000000: d3b6 7b3f 42d9 3f3f 5975 6d3f 9d5f 0140
00000010: 82bf 893f a5f1 663f 8d81 483f e5c0 0a3f
00000020: b2d0 ba3f 9d69 0240 4eaf 3c3f b2b7 803f
00000030: 879f 233f c810 a63f 0eb6 453f 06ff 6c3f
00000040: da43 d13f b8f8 843f a462 0140 ced4 383f
00000050: 9a8f ba3f f42c 293f 4b3c 503f 007d 5e3f
00000060: 35c3 5a3f 7fcf 773f 57c2 813f f8f8 493f
00000070: e8ba 6c3f 9214 0240 08a3 893f a887 6b3f
0.9832584 0.74940884 0.92757183 2.0214608 1.0761569 0.9021247 0.7832268 0.54200584
1.4594939 2.0376961 0.73704994 1.0056059 0.63915294 1.2973871 0.7723092 0.92576635
1.6348832 1.0388403 2.0216455 0.72199714 1.4575074 0.6608422 0.81342 0.86909485
0.8545411 0.9680099 1.0137433 0.7889552 0.92472696 2.0325055 1.0752878 0.9200387

0.conv1_3.2.running_var f4 [32]
00000000: 7628 2040 44c5 8d3f 68f3 da3f d8f5 6041
00000010: e1cd 1a40 4b22 1840 20ad 1f40 e6f4 a63f
00000020: c184 b040 da07 6e41 962a b63f fd19 9b40
00000030: ac06 953f cc30 3740 beef 5340 e833 1140
00000040: 7e77 8140 9b9b ad40 6bdf 8041 5536 0140
00000050: 155d c540 dd45 0440 4ff8 c53f 7ac9 7f40
00000060: 0200 3d40 041f 5f40 96ba 8940 72cd 1440
00000070: 2daf a63f c875 fb40 df98 b740 f4a5 1940
2.5024695 1.1075826 1.7105532 14.06002 2.4188159 2.377093 2.4949417 1.3043487
5.5162053 14.876917 1.4231746 4.8469224 1.1642661 2.8623533 3.3115077 2.268793
4.0458364 5.425245 16.10909 2.0189412 6.1676126 2.066764 1.5466403 3.9966722
2.9531255 3.486268 4.3040266 2.3250394 1.302221 7.8581276 5.737411 2.400754

0.conv2_1.0.weight f4 [32, 32, 3, 3]
00000000: df40 00bd 94dc 60bc 3759 46bc ebfc 6e3d
00000010: 13d2 7b3a e5cf cd3b 0930 7e3d e4bf 8b3d
00000020: 6cfa 7a3d 0c27 323d af55 a43b a100 b13d
00000030: af71 3f3d 2da3 a23c a5af c63d ad81 a33d
00000040: 52a9 c33d f73e 893d 00ea dc3c fd58 2a3b
00000050: 3ba3 653d 6638 a83d 760a 5d3d 8ba3 3a3d
00000060: 03d8 fd3c 3f6b b0bc e457 533b dfda 9fbd
00000070: 56a1 f1ba 9237 9fbc 3d78 3dbd 4c73 943d
00000080: f9d0 6b3d 1ad4 42bc ccca be3d 4f0a 2b3d
00000090: 4de4 39bd aeac 61bd 0c24 343d 5a25 803c
000000a0: 3738 10bd 47ca a9bc ef87 ebbd 3e74 173c
000000b0: 225b 90bc 80f5 02bd 50fd 2ebb 9782 01bd
000000c0: 78b8 aa3d 32b8 b0bc 102a 433d b6a7 703d
000000d0: 4d20 233d 5d5f bf3c 611f 2bbb 7399 e93c
000000e0: 122f 60bd 6f83 af3d d7d0 163d aa7d 693d
000000f0: 03c9 ae3d b659 ae3c d172 e13b 10bc edbb
00000100: d266 423d a706 a93d a58f 9f3d 9e0f 893c
00000110: 3f53 b43d f1ef 6c3d 2b54 03bc c054 f33d
00000120: 49c7 12bd fabf 0c3b 6f8d ecbc 89b5 393d
00000130: 5383 30bb 4987 263d 1b31 c43d ba22 5b3d
00000140: 4568 5a3d 1319 6bbd b0a5 b2bc c899 bf3b
00000150: 31da d0bd a901 70bc c06b 2a3c 8dd1 10bd
00000160: 7566 103d 1957 7f3c dc96 e8bd c2fb c3bb
00000170: 73c3 3bbd ef4c aebd bc8a f0bc 8387 58bd
00000180: 7089 17bd c63c 82bd 97a7 edbd 8932 43bd
00000190: 91e2 86bb 14aa 31bd 45cb e33c 7f55 b73c
000001a0: 6fc1 963c ad8d f33c e0aa 14bc c833 cc3d
000001b0: 9f36 d2bd 1aa8 01bd 238e 68bd 9159 94bd
000001c0: cf47 f5bc 2df2 50bd a75e eabc f231 503c
000001d0: cd33 a5bd 5335 ff3c 5718 de3c 766e 063e
000001e0: aae4 3d3d 39b0 993b f781 7f3c 2d15 973c
000001f0: 797c 403d bac5 753d f07d 79bc a3d2 4e3c
00000200: 066f 6ebd 75eb 713d fe72 c73c efe4 913d
00000210: 1e42 b83d f01a 933d e18f 2c3d c6ac cdbc
00000220: 45ec d3bc 6032 c0bc 4281 ee3c b212 613d
00000230: 6dc4 e43b 7970 7a3d dfba 0bbb 17bb 033d
00000240: 01e6 adbb 7230 383d ef22 963d f08f 363d
00000250: 0f29 e43d 989c 283c 9ad3 04bd 400d 273d
00000260: aee8 7fbc a406 943d 7d0a fdbc 80e4 9cbd
00000270: 2880 8d3d 314e 113d f86b 873d a265 4d3c
00000280: 8ec8 7cbc 816c 1abc ee47 a1bc d07b 513d
00000290: fce7 f0bb ad14 443b 8f67 a43d 6f3f 63bd
000002a0: 7bc5 293d 1fc6 8d3c d966 383d a007 953d
000002b0: 4d5b 193d f616 e7bb 0afd 8f3d ea19 b23c
000002c0: 313f bc3d 2617 c73c 792e c23d 2e78 003e
000002d0: ee7a 7bbd b727 a83d 0b13 e03d 1194 73bc
000002e0: 73cd 153d 95b6 293d 0a72 883c f345 763d
000002f0: 7400 d93d 497b 963d e675 c63d e55f 843c
00000300: f403 68bd f6d4 503d a2cd 903d 4abe e83c
00000310: 1204 883d fce1 eabc 50fc 263c b139 a2ba
00000320: 2f47 2e3c 8ce9 193d 09fd 07bd 9a31 613c
00000330: 2e7c 75bc ce98 083d 2e6d 643d dd1a 053d
00000340: 712f 1c3d ab3f 8a3c 0c85 8abb e4db a13d
00000350: 7bce 16bc a99d 613d 422a 123d feeb 7abc
00000360: cfa6 a1bd 621a 3fbd 53c4 7ebd 7f10 963c
00000370: ac5a 523d c51b 9a3b da8b 923d 35de 343d
00000380: e22a 3dbc ebff 5fbc 4f47 ce3c bc41 e0bc
00000390: b999 c23d cf18 b6bc 939c a23d a1f9 943d
000003a0: aebc c83d 9242 953d 1493 56bc 6a20 433d
000003b0: 06e4 56bd 11ce 09bc 2cf9 6b3d b477 67bd
000003c0: 31cb 5e3d a929 2f3d 4aac d1bc 0831 d03c
000003d0: f999 943c 8edc 063d 3dcd db3d 7fd7 4dbb
000003e0: 2cd0 fa3c a7a2 c73d 29ad 0f3d 2a0f 873d
000003f0: d5dd 113d d759 20bc 81cb cc3c dfee 86bd
-0.031311866 -0.013724465 -0.012106231 0.05834667 0.00096061936 0.0062808865 0.06205753 0.068237096
0.061273977 0.04349427 0.005015097 0.08642698 0.046739276 0.019853199 0.0970147 0.07983718
0.0955378 0.06701463 0.026967049 0.0025992983 0.05606387 0.08213882 0.053965054 0.045566123
0.030986791 -0.021535514 0.0032248432 -0.07805418 -0.0018434923 -0.019435678 -0.046257246 0.07248554
0.05757234 -0.011891389 0.09316024 0.041757878 -0.04538374 -0.05509632 0.04397969 0.01564281
-0.03520986 -0.020726336 -0.11500537 0.009244023 -0.01762158 -0.03197241 -0.002670128 -0.03161868
0.08335966 -0.021572206 0.047647536 0.05875369 0.039825726 0.023360902 -0.0026111233 0.028515553
-0.05473239 0.08569991 0.03682026 0.05700461 0.08534434 0.021283012 0.0068801423 -0.007255085
0.04746134 0.08253222 0.0779107 0.01673108 0.088049404 0.057846013 -0.008015673 0.11881399
-0.035834584 0.0021476732 -0.028876035 0.04533914 -0.0026933744 0.04065636 0.095796786 0.053499915
0.053322095 -0.05739696 -0.021807522 0.0058471896 -0.10197867 -0.014648833 0.010401666 -0.035356093
0.03525396 0.015584731 -0.11356899 -0.0059809396 -0.04584069 -0.08510768 -0.029363029 -0.05286361
-0.036996305 -0.06359248 -0.11604231 -0.047655616 -0.0041163643 -0.04337509 0.027806887 0.022379635
0.018402783 0.029730642 -0.009073943 0.09970814 -0.102643244 -0.031654455 -0.056776177 -0.07243646
-0.029941468 -0.051012207 -0.028609587 0.01270722 -0.08066521 0.031153357 0.027111216 0.13128075
0.04636065 0.004690197 0.015594951 0.018442715 0.046993706 0.06000302 -0.01522778 0.012623462
-0.05821135 0.05906244 0.024346825 0.07123744 0.08996986 0.07182872 0.0421294 -0.025106799
-0.025869498 -0.02346152 0.02911437 0.05494947 0.0069814236 0.06114242 -0.00213211 0.032160845
-0.0053069596 0.044968076 0.07330882 0.044570863 0.11140644 0.010291241 -0.03242836 0.04078412
-0.01561944 0.07227829 -0.03088879 -0.076607704 0.069092095 0.03547496 0.0661239 0.012536438
-0.015428675 -0.009425283 -0.019687619 0.051143467 -0.0073518734 0.002991955 0.08027565 -0.055480417
0.041448098 0.017306386 0.04501996 0.07276845 0.037440587 -0.0070522977 0.07030685 0.021740872
0.0919174 0.02430303 0.0948152 0.12545845 -0.06139653 0.082107 0.10941132 -0.014866845
0.036572885 0.04143389 0.01665594 0.060125303 0.105957896 0.073477335 0.09690456 0.016159007
-0.056644395 0.050984345 0.07070471 0.02841105 0.06641401 -0.02867221 0.010191992 -0.0012376813
0.010637089 0.037576243 -0.033200298 0.013744736 -0.01498322 0.03334885 0.055768184 0.032496322
0.03813118 0.016876062 -0.004227286 0.07903269 -0.009204502 0.055081997 0.03568483 -0.015315054
-0.07893144 -0.04665602 -0.062198948 0.018318413 0.051356003 0.0047030174 0.07155581 0.044157226
-0.011545869 -0.013671855 0.025180487 -0.027375095 0.095019765 -0.022228627 0.079400204 0.072741754
0.09801613 0.07288088 -0.01309659 0.047638334 -0.052463554 -0.0084109465 0.057610676 -0.056510642
0.054392997 0.04276434 -0.02559485 0.025414005 0.018139826 0.03292518 0.107325055 -0.0031408963
0.030616842 0.0974782 0.035077248 0.06594689 0.035611946 -0.0097870445 0.024999382 -0.0658853

0.conv2_1.0.bias f4 [32]
00000000: eb32 a13d 7b9e 1bbd 42f4 21bd 62e8 08be
00000010: 424e 52be 2c45 903a 8f53 7a3d 0c90 3c3d
00000020: 4962 57bd e748 36bc 2d9b 8d3b ae20 29bd
00000030: 399a 6bbd 3660 acbe a6c2 353d 7bd5 2abd
00000040: 0be2 0fbd d6f2 643d eb0d 75bd 2f2b 11bc
00000050: 75ea 42bc d962 ffbc 7628 163c afda 913c
00000060: 6656 d4bd be7f 9bbd c101 dc3c 905d dfbd
00000070: 14c5 46bd 7c8a a7bc 6903 30bd 64e8 debd
0.0787104 -0.037992936 -0.039539583 -0.13369897 -0.20537665 0.0011006943 0.061114844 0.04603581
-0.052583966 -0.01112578 0.004321477 -0.04129093 -0.057520125 -0.33667153 0.044375084 -0.041707497
-0.03512768 0.05589565 -0.059827726 -0.008860393 -0.011896719 -0.031175064 0.00916492 0.017804472
-0.10368042 -0.07592724 0.026856305 -0.109065175 -0.048527792 -0.020451777 -0.042972002 -0.10884169

0.conv2_1.2.weight f4 [32]
00000000: 2a52 623f 93d9 773f 3bf8 803f e35e 913f
00000010: 6d1a 8f3f c019 803f 8a27 733f efc3 743f
00000020: e2df 6d3f 8a31 763f 76f7 4b3f 14b5 963f
00000030: a69e 893f 21fc 9f3f ff45 753f 64d5 683f
00000040: 5c05 8d3f 0d79 383f cfbf 7c3f a76a 8a3f
00000050: 4a6b 5e3f acb7 823f 97f0 713f e5ff 853f
00000060: d789 663f 4132 993f b78f 6e3f 2106 a63f
00000070: 26bb 7e3f b4cb 883f f5f6 733f e524 6b3f
0.8840662 0.96816367 1.0075754 1.1357082 1.117994 1.0007858 0.94982207 0.9561147
0.92919743 0.9616934 0.7967447 1.1774011 1.0751541 1.2498819 0.9580993 0.9095061
1.101726 0.7205971 0.98730177 1.0813798 0.8688246 1.0212302 0.94507736 1.0468718
0.90054077 1.1968461 0.9318804 1.297062 0.99504316 1.0687165 0.952987 0.9185317

0.conv2_1.2.bias f4 [32]
00000000: aad0 cb3c 0a18 0c3d 6a75 c93d ada1 28bd
00000010: 2e8f 853d e4fc 223d c422 9f3d 57d7 063d
00000020: 7910 ccbc 2ce0 253d c597 b8bb b24a 003d
00000030: d7ed a93c 7089 be3d 8a4d dabd b5fa 69ba
00000040: 4e58 f13d 2243 f1bc f6c9 93bd 4ad3 b0bd
00000050: 80fd 16bd 1e88 303d 02b4 b63b 7527 bebd
00000060: 98e9 4c3c d9c2 8d3b 6438 8bbd 21e0 d33d
00000070: 087b d63d 5459 8d3c 30eb 10bd 23c1 9cbc
0.024879772 0.034202613 0.09836848 -0.04116981 0.0652145 0.039791957 0.07770303 0.032920208
-0.024910199 0.04049699 -0.0056333267 0.031321235 0.020743294 0.09303558 -0.10659321 -0.0008925603
0.11784421 -0.029450957 -0.07216255 -0.0863405 -0.03686285 0.04309856 0.005575658 -0.092848696
0.012506865 0.004326206 -0.06797865 0.103454836 0.10472685 0.017254509 -0.035380542 -0.019135064

0.conv2_1.2.running_mean f4 [32]
00000000: d233 3f40 e1b1 fc3f 9797 bd3e f31c c23d
00000010: 7a2f 2c3e 4869 2e3f eaa4 fc3e 53dc 8f3f
00000020: 56bc 0b3f 0b52 1e40 9235 f13f d828 e43f
00000030: d8c6 9640 f8ea c43e 78b1 c93e 6e47 853f
00000040: 4f51 c13f d942 b53f b48a 423f f720 683f
00000050: f803 0540 4488 c03e decf 0340 7276 923e
00000060: eb28 aa3e 21e4 f23e d483 043f 38b4 dc3e
00000070: 9015 8f3e 836e d33f 84c8 113f 7852 8540
2.9875379 1.9741784 0.37029716 0.09478178 0.16814986 0.68129396 0.4934457 1.1239113
0.5458425 2.4737575 1.8844473 1.7824965 4.711773 0.38460517 0.3939321 1.0412424
1.5102938 1.4161025 0.75992894 0.906753 2.0783672 0.37603962 2.0595622 0.28605992
0.33234343 0.47439674 0.51763654 0.43106246 0.27946138 1.65181 0.5694659 4.166317

0.conv2_1.2.running_var f4 [32]
00000000: b738 cc40 e387 a840 66c7 f63e c937 5d3e
00000010: c2ab f23e bba3 f63f 83ce ea3f 23cb 8a40
00000020: 0635 0240 ed3c a540 05b3 b840 285e 8540
00000030: 913f 8141 1745 db3f 4c70 a33f 5f9d 6d40
00000040: e3f1 6d40 be71 6d40 67e6 5740 5cf1 9340
00000050: a18b 8140 7f8e 973f 575e 7f40 6c2a b43f
00000060: 4f1b fb3f 3224 e73f 9b39 1240 6534 9a3f
00000070: b8db 3e3f 2bfd 9640 d851 0740 a077 9d41
6.381923 5.2665877 0.48199004 0.21603312 0.47396666 1.9268717 1.8344272 4.337297
2.0344863 5.163687 5.771853 4.1677437 16.156038 1.713046 1.2768645 3.7127302
3.7178886 3.7100673 3.3734376 4.623213 4.0482945 1.1840361 3.990133 1.4075446
1.9617709 1.8057921 2.284766 1.204724 0.74554014 4.7184043 2.1143703 19.68341

0.conv2_2.0.weight f4 [32, 32, 3, 3]
00000000: 4c50 b63d 7cae dbbc e310 09ba 4588 8e3c
00000010: b36c 7ebd e625 3d3b a0a2 36bc 6b77 51bb
00000020: 77fc 643c c38f b63b b84a 9abd 63c4 e1bc
00000030: b5e9 95bd 3a83 b9bd cd44 10bd f9db b5bc
00000040: e01d 8fbd 0baf 68bd 2cc7 1abd 2d33 82bc
00000050: fecf e0bc 7652 c13c 4274 eabc 7c47 943b
00000060: 0d00 5c3d d8fe 46bd 73ad 2dbc 996e f7bb
00000070: aa15 d3bc 3ebb 963c 325c e43b 2c8e 863a
00000080: c7bf f83b f91c 8cbc 3363 69bd 92c4 19bc
00000090: e782 5ebd 66fd ccbd fa55 1cbd 204d c2bd
000000a0: 3622 76bc c6a8 7abb 5dca b33c 9e7b 033d
000000b0: f392 55bc b638 cabd 58ca 89bd 9f9b 42bd
000000c0: eae3 e1bd da75 babd 70d4 bdbd 1ccc b2bd
000000d0: c51c f2bb 782b f63b 68e5 2f3d c5ec b73c
000000e0: fa0f e33c 2eef 6f3d 1f7f 9a3d 2d4d 213d
000000f0: 6d21 cb3d b08a 6e3d 7eb5 483d 66a4 a6bd
00000100: d68c c5bd c0df 33bd ebc5 c33c 7f54 fa3c
00000110: c3bb 7b3d 20b8 28bd a4cb dc3c cffb bf3d
00000120: 63a0 bebd 358c a5bd 7cb7 a1bd 8e70 ecbb
00000130: f8df c3bc 2040 b33d db72 a53c 35c6 363d
00000140: dbe2 3e3d 0ccc 753d c33b 96bc d402 b1bc
00000150: d4e3 9f3d 9dac f73c f57e 0bbd a796 883d
00000160: 3766 013d 799d 8cbd b7eb 913d 78b2 303c
00000170: 9c8c b3bc 24bc fe3c 4dbc 18bc e868 a0bd
00000180: 058d 013e d60d 7b3c 5a60 47bd 2ab2 dd3c
00000190: 098a 343b 8a99 a0bc b8bc d03d 23d9 403d
000001a0: decd 5a3d c5ff d13d 11cf 5c3d 4625 a43d
000001b0: 0392 023e e3d1 3b3e c00e 073d 6c82 e23d
000001c0: d25f 013e 70a5 313c 24b4 b73d 8e66 e53d
000001d0: 2c67 a83b 7446 463d 8edc 56bb 7dc0 bf3c
000001e0: c8bf 073e 0955 c33d ddd8 473d 308d aa3d
000001f0: 8aaf 6f3d d552 6c3d decb 243c 03bd 883c
00000200: b1c1 2cbc 7b23 a1bd 02fc 58bd 5a61 d53b
00000210: 50b4 febc a28f dcbd 57cd dbbd 6a8f 98bd
00000220: 13c6 cd3c 2f54 f2bc f036 1abd 581f 7cbc
00000230: 94a1 1ebd 6d0e 203d b5bc 5f3d bad8 463d
00000240: 5f27 493d c366 88bc 952f ddbc d367 733d
00000250: 1ff9 debc e3b8 acbd 9350 523d 82e7 0dbd
00000260: 3fbe 94bd 473c 273e 8223 6a3d d21c 803c
00000270: eba3 9d3c bc57 1e3d 6f17 853d 6ce0 a2b9
00000280: 7d7a 4dbd 6ee9 96bc f29a 85bd 8e96 89bd
00000290: 5fee 96bc 92f9 9dba 2862 1ebd 9c0e e93c
000002a0: a345 c5bc 4a6b 36bc fee9 30bd 5b4c 11bb
000002b0: 69cf 223d 3557 ccbc 8932 2fbd bd1d 8e3a
000002c0: 1165 b93d d7df a53c 3549 bd3d 6b65 0d3e
000002d0: 76b8 85bd ec40 c1bd 35f9 3dbd ff51 43bd
000002e0: 5f12 4fbd ed30 edb9 8fdb 2dbd 7d38 49bd
000002f0: f119 ebba 6a0b 89bd 6d25 62bd d5c0 05bd
00000300: be94 81bc eda7 8bbd 16bc 603d e851 57bc
00000310: e5bf 203d 62a6 0a3d 0f2e cb3d cdab 8e3d
00000320: 85be 7a3d 675c 543d 4031 29bc 7089 893b
00000330: 0ab0 933d 2b9d b53b 9c51 8c3d eec5 b3bd
00000340: f00b 5fbd 29c9 67bd a3db 89bd bc62 c8bd
00000350: 3038 82bd 2275 e9bd be50 87bd 5205 50bd
00000360: 5b6c d6bd bda9 0cbe 03d1 58bd d46f 50bd
00000370: e6b2 8bbc 9a04 7bbc ef8a 3fbd 1a77 2dbd
00000380: 79af 00bd f10f ddbc cee7 34bd 64d4 b3bd
00000390: ed51 373d 55a6 35bd e9f7 61bc e3d8 44bd
000003a0: daf2 833c 9614 2c3d 2de6 c43b e7a1 31bd
000003b0: cae2 833d e121 6cbd b036 233d 62bd 19bb
000003c0: 9de5 03bd 69f5 c73b 1fc9 9e3d 0af4 b1bd
000003d0: 9c70 6bbd 3ac9 bfbd 50ac 21bc aa82 8abd
000003e0: 7ccb e43c 9ae1 eebd 4b66 f5bd 9c31 dcbd
000003f0: e6e8 4e3c 08d5 8ebd 8292 f8bd 82b1 9cbc
0.08902034 -0.0268166 -0.00052286516 0.017398963 -0.062115382 0.00288617 -0.011147171 -0.0031962048
0.013976208 0.005571337 -0.07533783 -0.027559465 -0.07319967 -0.090582326 -0.035221864 -0.022199618
-0.0698812 -0.05680756 -0.0377876 -0.015893543 -0.027442928 0.02359889 -0.02861989 0.004525123
0.053710986 -0.04858288 -0.010600436 -0.007551026 -0.025767166 0.01839983 0.0069689984 0.0010265759
0.007591221 -0.017103659 -0.05697937 -0.009385245 -0.054324057 -0.100092694 -0.03816793 -0.09487367
-0.015022805 -0.003824757 0.02194708 0.032100312 -0.013035524 -0.09874098 -0.06728047 -0.047511693
-0.11029799 -0.0910451 -0.09269035 -0.08730337 -0.0073886835 0.007512506 0.04294339 0.022451768
0.02771758 0.05857771 0.07543778 0.03938024 0.09918485 0.05823773 0.04900121 -0.08136825
-0.09646003 -0.043914557 0.023898086 0.030557869 0.06145836 -0.04119122 0.026952572 0.093742006
-0.09307935 -0.08083383 -0.07896325 -0.007215566 -0.023910508 0.08752465 0.020196369 0.04462262
0.046603065 0.060009047 -0.018339043 -0.021607794 0.07807127 0.030233676 -0.034056623 0.0666936
0.03159162 -0.06865973 0.07125037 0.010784738 -0.021917634 0.031095572 -0.009322238 -0.07832509
0.12651451 0.015323123 -0.048675872 0.027062494 0.0027548096 -0.019604463 0.10192245 0.047082078
0.053418986 0.10253862 0.05390841 0.08014922 0.12751012 0.18341784 0.03297305 0.11060032
0.12634209 0.010842666 0.08969906 0.112012014 0.005139252 0.048407033 -0.003278527 0.023407215
0.13256752 0.095377035 0.0487908 0.08327711 0.058517016 0.057696182 0.010058371 0.01669169
-0.0105442265 -0.078680955 -0.05297471 0.0065118494 -0.03109184 -0.10769583 -0.10732525 -0.07449229
0.025118863 -0.029581157 -0.03765005 -0.015388332 -0.03872831 0.039076257 0.054623324 0.04854653
0.049109813 -0.016650563 -0.027000228 0.059425186 -0.0272184 -0.08433702 0.051346373 -0.03464461
-0.07262849 0.16331588 0.05716277 0.015638743 0.019243201 0.03865789 0.0649861 -0.00031066255
-0.050165642 -0.018421855 -0.06523694 -0.06718169 -0.018424211 -0.0012052527 -0.038667828 0.02844935
-0.024081057 -0.011133978 -0.043191902 -0.0022170756 0.039748583 -0.024943927 -0.042772803 0.0010842603
0.0905248 0.020248337 0.09242479 0.13808219 -0.06529324 -0.09436211 -0.04638024 -0.04768562
-0.05055463 -0.00045240615 -0.042445716 -0.049126137 -0.0017936808 -0.0669163 -0.055211473 -0.032654602
-0.015817996 -0.06819139 0.054866873 -0.013142087 0.039245505 0.03385008 0.09920894 0.06966362
0.06121685 0.051845934 -0.0103266835 0.004197292 0.07211311 0.0055424175 0.06851503 -0.087779865
-0.054454744 -0.056588326 -0.067313455 -0.09784457 -0.06358373 -0.113992944 -0.06607197 -0.050786324
-0.10469886 -0.13736625 -0.052933704 -0.050887898 -0.017053079 -0.015320921 -0.046763357 -0.042349912
-0.031417344 -0.02698514 -0.04416638 -0.08780745 0.044755865 -0.04434808 -0.013792017 -0.0480584
0.016107012 0.04201182 0.0060088844 -0.043367293 0.06439741 -0.057649497 0.039847076 -0.0023458828
-0.0322014 0.006102253 0.077532046 -0.08689125 -0.05748044 -0.09364553 -0.009867743 -0.067632034
0.02792906 -0.11664124 -0.119824015 -0.1075165 0.0126287695 -0.06974226 -0.12137319 -0.019127611

0.conv2_2.0.bias f4 [32]
00000000: 73ff 223d a89a 3bbd b13b bf3d 5e21 bbbc
00000010: b2b2 2b3d c2c1 2e3d a5a3 abbc bf01 ea3c
00000020: 20f8 9cbd 623b c2bc 0ca0 a6bd 63a4 9abd
00000030: e56e ba3b 6c1c f13c 5592 6dbb b898 7ebd
00000040: 0bb2 473d 4295 80bd c039 98bc 8541 e0bc
00000050: e545 1f3d db91 213d 60fc 3dbd e23f f03b
00000060: 23b2 7cbd 86c2 90bc 4b6f 73bc e66e 063d
00000070: 60a2 01bd b6d0 44bc 49d9 f6bd 0454 82bd
0.039794397 -0.04580179 0.09337557 -0.02284306 0.041918464 0.04266525 -0.020952055 0.028565286
-0.076645136 -0.023709957 -0.08135995 -0.075508855 0.005689489 0.029432498 -0.003625055 -0.062157363
0.04875378 -0.06278469 -0.018582225 -0.027374992 0.038885016 0.03944574 -0.04638326 0.007331834
-0.061693322 -0.017670881 -0.014858077 0.032820605 -0.031648993 -0.012012651 -0.120531626 -0.06363681

0.conv2_2.2.weight f4 [32]
00000000: 4cac 893f e859 753f f532 8a3f 0ee4 6b3f
00000010: 4436 643f 275d 823f 120c 683f 839b 663f
00000020: fead 673f cf4c 7c3f 5656 623f 6cd0 7d3f
00000030: 99e6 743f fded 8b3f 17b7 7e3f dd1a 893f
00000040: ad6d 6d3f 0c9a 843f df1c 7f3f f6e3 723f
00000050: fa9a 773f fe1f 843f 0ce3 a63f a9fe 683f
00000060: f780 843f ec8e 683f f093 6a3f 1ce6 6a3f
00000070: fe51 803f 6f60 8b3f 546b 7d3f c6f6 6e3f
1.0755706 0.9584031 1.0796801 0.9214486 0.891453 1.0184678 0.9064342 0.9008104
0.90499866 0.985547 0.8841299 0.9914615 0.95664364 1.0932003 0.9949812 1.0711323
0.92745477 1.0359511 0.9965343 0.9487909 0.9672085 1.0322263 1.3038039 0.9101358
1.0351857 0.9084308 0.91631985 0.9175737 1.0025022 1.0888804 0.98991895 0.93345296

0.conv2_2.2.bias f4 [32]
00000000: 83be a4bd a2b1 a5be 3ab5 9b3d 67f4 d7bd
00000010: 6682 89be ad12 6a3e a26d 25be 0dc2 9ebd
00000020: 540a 14be ed76 bfbe 45ec 2bbc 4e76 bebe
00000030: 142a 97be 08b5 f03d e122 78bd dcff 173e
00000040: e259 99bd d159 a7bd a9a6 973d b399 3bbe
00000050: dfa5 153e 9af6 663e 71af 91be 6788 20be
00000060: ec57 913e 7c45 a43d 01d6 8f3d 1201 afbc
00000070: 78ec a03d 10cc 0cbe e353 b13d 58e0 1ebe
-0.0804415 -0.32362086 0.076029256 -0.10544663 -0.268573 0.22858687 -0.16155103 -0.07751856
-0.14457065 -0.3739542 -0.010493343 -0.37199634 -0.2952429 0.11753279 -0.060580138 0.14843696
-0.07487847 -0.08171428 0.07404835 -0.1832035 0.14614056 0.22555009 -0.28454164 -0.15677033
0.28387392 0.080210656 0.0702324 -0.021362815 0.07857603 -0.13749719 0.08658578 -0.15515268

0.conv2_2.2.running_mean f4 [32]
00000000: 752e 983f 868a 553f 9cb1 b33f 88ee 643f
00000010: 3180 643f 3db3 963f a14e 633f 8277 5e3f
00000020: 2730 1e3f e8bb 4e3f bf70 393f d329 053f
00000030: 49c0 313f 8c70 6f3f 20b3 6d3f 787e 813f
00000040: edb9 233f bfe6 4c3f b110 913f 2496 b53f
00000050: 7b6f 1140 3060 373f 1239 4a3f b64d 363f
00000060: ece7 393f e10b 383f 195e 463f 0696 983f
00000070: 61a5 723f 79f8 833f cf84 0b3f 6b1f 0b3f
1.1889178 0.83414495 1.4038577 0.8942647 0.89258105 1.1773449 0.88791853 0.86901104
0.61792225 0.8075547 0.7243766 0.52016944 0.6943403 0.9353111 0.9285145 1.011672
0.63955575 0.8003959 1.1333219 1.4186444 2.2724292 0.71631145 0.7899333 0.7121233
0.7261951 0.71893126 0.7748733 1.1920784 0.947836 1.0310203 0.54499525 0.54344815

0.conv2_2.2.running_var f4 [32]
00000000: 46b7 3740 ead4 1a40 9549 3440 7485 8d40
00000010: f101 4440 7a4a 2140 0d4b 9b40 0894 3e40
00000020: ebd8 1d40 0ea1 d93f 1192 c73f 168d bb3f
00000030: 003e 7e40 6319 0040 90ad 683f e7fd 1740
00000040: 758c a03f 76ef 4d3f 145e 1740 f81b 3941
00000050: 6e0b 7d40 a758 9c3f 4334 993f 61e0 1d40
00000060: 66c9 ee3f f1e2 923f 452b 5b40 3c9f bb3f
00000070: b21d ce3f 7768 cd3f cd3e aa3f d78b 1840
2.8705611 2.4192452 2.816991 4.4225407 3.0626185 2.5201707 4.8529115 2.977785
2.4663646 1.7002275 1.5591451 1.4652431 3.9725342 2.0015495 0.90889835 2.374872
1.2542864 0.80443513 2.365117 11.569328 3.9538226 1.2214555 1.1969074 2.46682
1.8655212 1.1475507 3.424516 1.465797 1.6102812 1.6047505 1.3300415 2.3835351
