vae/CIFAR_target_0_linf.pth (torch, 467446 bytes, 68 tensors)

0.conv1_1.0.weight f4 [16, 3, 3, 3]
000000 30 f0 14 be c7 67 7b be 4f 00 9f bd 64 b1 59 be
       -0.1454475 -0.24551307 -0.07763731 -0.21259075
000010 90 c0 ef bd 51 c9 30 be 7b 99 01 be 2f ac b3 bc
       -0.1170665 -0.17264296 -0.12656204 -0.02193269
000020 7c e6 af 3d 50 81 68 3d 15 5e d8 3c 88 34 0b be
       0.08588883 0.056763947 0.02641205 -0.13594258
000030 f1 8d 13 3d 72 9e 60 be 50 16 4d be 03 05 dd 3c
       0.036024038 -0.21935442 -0.20028043 0.026979929
000040 fd cd 6c be a3 2c 7c be 56 5f 36 be ba 51 10 3d
       -0.23125453 -0.24626403 -0.17809805 0.03523419
000050 19 59 11 bd 6f 49 85 bd 2a e8 97 bd 26 a2 b3 3a
       -0.03548536 -0.06508147 -0.07417329 0.001370494
000060 24 7a 14 bd 7b d6 bf 3c 67 25 23 3d 32 87 bd bc
       -0.036249295 0.023417702 0.03983059 -0.023135755
000070 77 f0 d2 bd 6f 0f c2 3c b0 57 4f be 98 ae f3 bd
       -0.10299771 0.023689 -0.20248294 -0.118985355
000080 a0 7e 32 bd 17 7b 9c be 15 79 d0 bd 7d 3b e0 3c
       -0.04357779 -0.3056266 -0.101793446 0.027372116
000090 82 c4 a7 be a8 3c 96 be 7c ba 82 be 53 ca 9b bd
       -0.3276711 -0.29343152 -0.255329 -0.0760695
0000a0 d1 e3 97 be d5 2d 5b bd 11 cc 8a be 17 11 c0 be
       -0.29665998 -0.053510506 -0.27108815 -0.3751304
0000b0 31 f6 11 be 1e 75 ed bd c0 ac a3 bd 8f cd 4a bc
       -0.14254071 -0.11594604 -0.07991934 -0.012378111
0000c0 fb f7 84 bd 96 57 b5 be 03 13 35 be f4 07 74 be
       -0.06492611 -0.35418385 -0.17683034 -0.23831159
0000d0 97 00 3a be 83 9c 99 be 22 0f 84 3e 87 51 86 3e
       -0.18164288 -0.3000222 0.25792795 0.26234075
0000e0 7f 0d 29 3e a0 84 8f 3e 11 48 c0 3e 2a e5 17 3d
       0.16509055 0.28030872 0.37554982 0.037083782
0000f0 75 33 2d 3e 80 ce a2 3c 23 1c 1a 3c 19 10 0b 3e
       0.1691416 0.019873857 0.009406122 0.1358036
000100 f8 f4 61 3e 53 86 98 3d 5d 1b ab 3e 66 5d 43 3e
       0.22066104 0.07447495 0.33419314 0.19078597
000110 6b fe 3a 3e b0 c7 9a 3e f0 57 b9 3e 5b 83 9b 3e
       0.18261115 0.30230474 0.36199903 0.30373654
000120 c7 25 1a 3f 07 51 28 3f c1 63 af 3e f2 ba 30 3f
       0.60213894 0.6574864 0.34255794 0.69035256
000130 e6 0c 40 3f 4b 01 3a 3f 46 9f 0e 3f cb 25 3a 3f
       0.7501968 0.7265822 0.5571178 0.7271392
000140 0d 69 2e 3f 20 5e d1 3d ed ec 24 be a3 77 70 3d
       0.68129045 0.10223031 -0.16106005 0.058707844
000150 6c 15 4f 3e 2d c1 4e 3e 26 ac 0e 3d 3b dd 06 be
       0.20223016 0.20190878 0.034832142 -0.1317033
000160 05 4d 00 3d 78 cc 63 be bf a7 7b bd f1 74 6a 3e
       0.03132345 -0.22245967 -0.061439272 0.22896172
000170 ff 01 35 3d ce 5f 85 3e 33 b4 d0 3e a9 5e 6f 3e
       0.044191357 0.26049656 0.4076248 0.23375954
000180 d2 9a 00 be c7 17 aa 3e a7 5d 4f bd b5 58 6f 3d
       -0.1255906 0.33221266 -0.050626423 0.058434207
000190 a0 03 8c bc 8e d0 1a be 4d 87 96 3e 4e a6 ca 3e
       -0.017091572 -0.1511862 0.294001 0.39580005
0001a0 16 a4 8c 3e 44 e6 fe bd 92 b3 64 3d 4f 35 8c be
       0.27468938 -0.124462634 0.055835314 -0.2738442
0001b0 ea 58 76 bc 8f 6f a6 3c cb d8 27 3d d5 25 12 3e
       -0.015035847 0.020316867 0.040978234 0.14272244
0001c0 d1 92 58 3f 1c f3 ab 3e 84 63 7e be f6 23 8c 3e
       0.84599024 0.33583915 -0.2484265 0.27371186
0001d0 84 d5 d2 3d 8d 2c cb bd 6b 81 46 3e 8f bb 2c 3d
       0.10294631 -0.09920607 0.19385307 0.042171057
0001e0 d9 b4 90 3e 06 c9 33 3f bb 11 04 3f d6 0c a8 be
       0.28262976 0.7022861 0.51589555 -0.32822293
0001f0 c3 13 c5 3e 35 d1 6e 3d ca 7e ec be b7 1d ee be
       0.3849164 0.058304984 -0.46190482 -0.46507046
000200 7b bc 75 be e6 a3 28 be d0 69 7f bc 2a 19 6b be
       -0.23997681 -0.16468772 -0.0155891925 -0.22958818
000210 47 4a aa be aa 45 9e bd ad fe 39 be eb 29 88 be
       -0.33259794 -0.07728131 -0.18163557 -0.2659448
000220 90 6b 04 bf dc 2e 40 be 4e e5 7e be f4 98 28 3d
       -0.5172663 -0.18767875 -0.2489216 0.041161492
000230 bf 13 b6 3e 62 75 fa 3c 45 04 dd 3e 4f e3 99 3e
       0.3556194 0.03057355 0.4316732 0.30056235
000240 d4 6c be bc f8 7b 65 3e 96 6a 2d 3e a5 eb a0 bc
       -0.023245253 0.22410572 0.1693519 -0.019643614
000250 1d 58 ad 3e 04 d0 5d 3e 73 1c 3b be 2d fa 95 3e
       0.33856288 0.21661383 -0.18272571 0.2929243
000260 c7 7f 19 3e ab 3a cf 3d da 17 c2 3d 48 92 16 be
       0.1499015 0.10118612 0.094772056 -0.1470424
000270 a7 8f 73 3e 04 1d 0f 3e fd 77 a3 3c 3a df f4 bd
       0.23785268 0.13975912 0.019954676 -0.119566396
000280 36 ed f9 bc 4f 6f 42 bd 54 c8 c2 be 60 21 64 be
       -0.030508619 -0.047469433 -0.38043463 -0.22278357
000290 e2 12 3a be 34 92 c3 be 96 0b 0a bf 17 f7 a7 bd
       -0.18171266 -0.38197482 -0.5392393 -0.082014255
0002a0 11 06 b4 bd c8 3d e2 be 82 46 85 be cd 56 92 3e
       -0.087902196 -0.4418776 -0.26030356 0.2858185
0002b0 3d 07 1d 3f 4a 69 b0 3e 07 92 1a 3f 3f 34 0a 3f
       0.6133917 0.3445533 0.6037907 0.5398597
0002c0 4e b2 e1 3e af 64 ed 3e 9a 86 5a 3e e2 c9 6f ba
       0.44081348 0.46365878 0.21340409 -0.00091472093
0002d0 da a6 4b bf 07 5f b3 bd cf a2 1e 3d dc 90 ec 3d
       -0.7955147 -0.087583594 0.038729485 0.11551067
0002e0 75 13 a4 3e 6b f9 11 3e 1c 1d 8f bd e7 60 af 3e
       0.32046095 0.14255302 -0.06987974 0.34253618
0002f0 ef b8 1e be 6e 56 85 be 91 31 ac 3e ba ef f4 be
       -0.15500234 -0.26042503 0.33631566 -0.47839147
000300 92 69 d1 bc d6 de 8c 3f fa db fa 3e a4 d8 3c bf
       -0.025563035 1.1005504 0.48995954 -0.7376807
000310 1e 4e 81 be b5 0d 21 be 91 49 00 bf 45 ef 4c 3e
       -0.2525491 -0.15727885 -0.50112253 0.20013149
000320 94 39 9c be 21 ab c6 3d 35 15 8c 3f fe fc c0 bd
       -0.3051268 0.09700609 1.0943972 -0.094232544
000330 16 0b 08 bf a6 b0 26 bd c1 2d ce be 02 85 c8 bd
       -0.53141916 -0.04069581 -0.40269282 -0.09790994
000340 18 89 af 3e c9 6d 13 bf 59 a6 f1 3e 0c 1b c0 3f
       0.34284282 -0.57589394 0.47197226 1.5008254
000350 b1 ab af be a6 66 12 bc e1 ec c5 3d 36 fb 09 bf
       -0.34310678 -0.008935606 0.09664322 -0.5389894
000360 ab e1 92 bc 5f 08 a8 bd 72 66 4e be 97 51 40 be
       -0.017929872 -0.08204722 -0.20156267 -0.18781124
000370 9b 1d 8e 3d e1 ac c2 bd 3b 46 4c 3d 04 05 f6 bd
       0.069392405 -0.0950563 0.049871664 -0.120126754
000380 87 86 41 3b b0 ab af bc 24 44 43 3b fc d3 0c be
       0.0029529647 -0.021444172 0.0029795254 -0.1375274
000390 b0 86 96 3c df 2c d3 3d 0e 22 b2 3d ee f9 2b bd
       0.01837477 0.10311293 0.08697902 -0.0419864
0003a0 23 bd 43 be d3 32 d7 3c 2a 4b fc bd 5b de d3 bd
       -0.19115119 0.026269352 -0.12319024 -0.10345145
0003b0 ab dd 85 3d 4f 37 ad bd a2 93 33 bd aa 0c 9a 3d
       0.065364204 -0.08457815 -0.043841965 0.07521947
0003c0 b3 4f 19 bd b6 8b c4 bc 6b 36 8c 3c 40 bd 7b 3f
       -0.037429523 -0.0239924 0.017115792 0.9833565
0003d0 c7 39 0d 3e af a0 c3 be 68 6b 87 3f 63 2c 36 3b
       0.13791572 -0.3820853 1.0579653 0.0027797453
0003e0 26 5e 1b bf 1b 7f d2 be b2 05 92 be 3c fa 64 be
       -0.60690534 -0.411126 -0.2851997 -0.22361082
0003f0 31 fc 06 3f 6c 5b 57 3e 0a ad b6 bd a5 b8 31 3f
       0.52728564 0.21030968 -0.08919723 0.6942237

0.conv1_1.0.bias f4 [16]
000000 de 57 87 be c6 13 be be d5 e8 16 3f 28 9a 73 3e
       -0.26434225 -0.3712446 0.58949023 0.23789275
000010 3b 99 0f 3e ef 6f 87 3e 22 64 87 3e f9 00 cd 3e
       0.14023297 0.26452586 0.26443583 0.40039805
000020 8c cf 27 be da b9 0a 3f 9a 91 46 be 1d b0 48 3e
       -0.16387767 0.54189837 -0.1939148 0.19598432
000030 cd 8c 31 3e 10 28 12 3e 04 04 52 3e 6d ac 81 be
       0.17338867 0.14273095 0.20509344 -0.25326863

0.conv1_1.2.weight f4 [16]
000000 bf 77 81 3f 54 d1 7b 3f 3d 76 5e 3f 9d f7 65 3f
       1.0114669 0.98366284 0.8689917 0.8983095
000010 46 68 5d 3f 4b 28 07 3f 23 aa 75 3f 56 d3 c5 3f
       0.86487234 0.5279586 0.95962733 1.545512
000020 52 9c 7f 3f 33 c2 8c 3f c0 b1 9d 3f 5a c1 4b 3f
       0.998479 1.0996765 1.231987 0.79591906
000030 78 2b 30 3f 83 21 7d 3f b3 35 51 3f 46 5a 81 3f
       0.6881633 0.9887926 0.81722564 1.0105674

0.conv1_1.2.bias f4 [16]
000000 ff 30 82 3e f3 43 ff 3d 23 d2 94 3f f6 3a 82 3f
       0.25428006 0.12464132 1.1626629 1.0174243
000010 e4 7a 1b 3f 6d 26 6f bd b4 48 17 3f 16 e2 24 3f
       0.6073439 -0.058386255 0.5909531 0.6440748
000020 02 d8 8c 3d 05 ca 5e 3f cd dd a5 bf 31 75 5c 3f
       0.06877138 0.8702701 -1.2958313 0.8611632
000030 0f 8b 81 3f ae 65 ba 3f 9c 07 5b 3f 1c cf 98 3e
       1.0120562 1.456228 0.85558486 0.29845512

0.conv1_1.2.running_mean f4 [16]
000000 04 00 00 00 04 00 00 00 2c 43 89 40 30 67 82 3f
       6e-45 6e-45 4.2894497 1.018774
000010 96 0e 32 3f 64 a7 51 3f 94 91 15 3f 3b d3 23 3f
       0.69553506 0.8189604 0.5842526 0.6399419
000020 1d 75 80 2a b2 9a 75 3f 04 00 00 00 a5 6a 64 3f
       2.281863e-13 0.9593917 6e-45 0.89225227
000030 e0 23 85 3f fd 2d 4b 3f ca 12 48 3f 04 00 00 00
       1.0401573 0.7936705 0.7815367 6e-45

0.conv1_1.2.running_var f4 [16]
000000 04 00 00 00 04 00 00 00 a3 4c ab 40 5d ce 8a 3e
       6e-45 6e-45 5.353105 0.27110568
000010 b8 5c 6b 3e 08 c4 27 3e 88 81 e0 3d d8 3e 88 3e
       0.22984588 0.16383374 0.10962206 0.26610446
000020 27 b1 a8 26 ba 3c 69 3e 04 00 00 00 23 9b 9c 3e
       1.1705359e-15 0.22777072 6e-45 0.3058711
000030 15 f3 96 3e 02 30 3e 3e 04 8d 2d 3e 04 00 00 00
       0.29482332 0.18573001 0.16948324 6e-45

0.conv1_2.0.weight f4 [32, 16, 3, 3]
000000 f6 2f fc 3c 44 17 a8 3d 7b aa 1c bd 2c e4 c2 3d
       0.030784588 0.082075626 -0.03824852 0.095161766
000010 e0 59 5e bc b7 9a 12 3c 59 6a 0c 3e ed 79 c1 3d
       -0.013571233 0.00894802 0.13712443 0.094470836
000020 6c f5 00 3d ec cb 0c 3b 5f de a7 bd 8b 13 93 3d
       0.031484053 0.0021483852 -0.08196711 0.07181462
000030 c0 9c 0d 3d b6 6a 89 bd fb b7 67 3d bd 87 82 bd
       0.034573317 -0.067098066 0.05657194 -0.06373546
000040 28 03 f1 bd ed dd 13 3d 0b d2 57 3d 4b 4c 22 bd
       -0.1176818 0.036100317 0.052690547 -0.03962354
000050 7b be d3 bd b1 3b 97 bc 33 fd e4 bd 3c 88 f0 bd
       -0.10339066 -0.01846108 -0.111811064 -0.11744735
000060 ec 0c bb bd ef 74 ea bd a4 bc 00 be ec c4 11 3d
       -0.09133324 -0.114480846 -0.1257196 0.03558819
000070 8c ef 33 3d 85 e9 ec bc 76 52 57 3d 55 4d 9c 3d
       0.04392962 -0.028919945 0.052568875 0.076319374
000080 f5 54 2f 3d d8 03 09 3d d9 25 e0 bd 37 8e 78 bd
       0.04280563 0.03345093 -0.10944719 -0.0606825
000090 0c 04 3b 3d 70 e9 81 3e 41 24 84 3b 59 03 4a bd
       0.045658156 0.2537341 0.004032642 -0.0493196
0000a0 81 3b d2 3c 3c 56 9c bd 93 e3 90 bd 73 60 88 bd
       0.02566314 -0.076336354 -0.07074656 -0.06659021
0000b0 be 2c 85 bd a2 20 35 3c c2 db ba bc d2 7f 36 be
       -0.065026745 0.011055144 -0.022809867 -0.17822197
0000c0 29 61 c7 bd e3 9e 38 bd b2 c9 15 be 38 a9 4d be
       -0.09735329 -0.0450734 -0.14627722 -0.20084083
0000d0 57 87 e2 bd 46 f2 c6 bd 2b ec db bd 6e a3 8b 3d
       -0.1106097 -0.09714179 -0.10738405 0.06818281
0000e0 55 89 11 3e fe 96 e5 3c 9c c9 30 3e 6a a9 2e 3e
       0.14212544 0.0280261 0.17264408 0.17056814
0000f0 25 4c 4f bd a9 26 57 3e 0a ca 20 3e cf d9 b9 be
       -0.050609726 0.21010841 0.15702072 -0.36298987
000100 9a 79 c1 3d e3 40 7a bd 5b 08 40 bd 4f 18 c7 3e
       0.09447022 -0.061097037 -0.04688297 0.38885733
000110 66 dd 9e 3e 73 17 62 3d 66 41 1d 3e 7c f0 7d 3d
       0.3102829 0.055198144 0.15356979 0.061996922
000120 4e 38 6b bd e1 b0 9d 3b 84 6f ab 3b ec 35 5d bc
       -0.057426743 0.0048123454 0.0052317996 -0.0135016255
000130 34 4a 6d 3d 6b df c3 3b f4 69 ef bc 7d 61 35 3d
       0.057932094 0.005977561 -0.029225327 0.044282425
000140 45 ca 3f bd 14 5e fa bd f8 17 e5 3c 29 54 66 3e
       -0.04682376 -0.12224975 0.02796553 0.22493042
000150 28 e3 d7 bd 27 95 f5 3d 8b 9c d2 3e ff 13 44 3e
       -0.105413735 0.11991339 0.41135058 0.19148253
000160 dc 59 8d 3d f7 fe 06 bd 3e 54 99 bd 24 d0 16 be
       0.06901905 -0.032957997 -0.07486771 -0.14727837
000170 95 88 bd bd 0b 1f 13 be 4c a9 09 be 2e fa 46 be
       -0.092545666 -0.1436731 -0.13443488 -0.19431373
000180 ec 41 b6 bc 05 3e 0e 3d c5 fd 23 bd e6 a0 1d bd
       -0.02224823 0.034727115 -0.040036935 -0.038483523
000190 cb 20 0e be 88 b5 13 3e 5b cd b4 bd d8 51 97 3d
       -0.13879697 0.14424717 -0.08828231 0.07388657
0001a0 f0 d5 0e 3e cc 86 de bc bb 12 b3 bd 66 20 6e 3d
       0.13948798 -0.027163886 -0.08743807 0.058136366
0001b0 0e 05 0c 3e c5 b2 49 bd 0f 50 40 3d d8 91 07 3e
       0.13673803 -0.049242754 0.04695135 0.13239229
0001c0 86 f4 12 3d c2 6a 65 bd 23 07 24 3b b3 7d 9f bb
       0.035877727 -0.056010015 0.0025028668 -0.0048672794
0001d0 08 76 63 bd b0 fe 25 3e ae 3d 93 bc 4e dc af 3d
       -0.055532485 0.16210437 -0.017973747 0.08586942
0001e0 f4 c6 66 bd f7 97 87 bd 3f 93 c2 bd 61 3d 19 be
       -0.05634208 -0.06620782 -0.09500741 -0.1496482
0001f0 a6 dc 0a be 47 59 07 be 71 86 52 3b 61 43 41 3e
       -0.13560733 -0.1321765 0.003212359 0.1887336
000200 3f 64 a8 3d 6c da 99 bc 03 2b 56 3d a5 cd b9 bd
       0.082222454 -0.01878091 0.052287113 -0.09072427
000210 28 a3 28 be 71 09 3f be 5c d7 d4 bd cc 5a 60 bd
       -0.16468489 -0.18655945 -0.10392639 -0.05477409
000220 20 7e db 3d aa 5d e9 bc ba af 6d bd c1 2a 9a 3d
       0.10717416 -0.028487045 -0.058028914 0.07527686
000230 db 4b 28 bd cf 2b 95 3c d5 04 be bc e5 cd 8b bd
       -0.041087966 0.018209366 -0.023195663 -0.06826381
000240 75 5e 49 be 43 2b 98 3b 48 90 3e bc 8c 0e a4 bd
       -0.19664939 0.004643829 -0.011631079 -0.08010587
000250 3e a6 2f bd 3d bf 5d bd c6 af 36 be d2 cb 06 be
       -0.04288315 -0.054137457 -0.1784049 -0.13163689
000260 57 22 0f be fc 10 4d bd 42 2e 11 bd c8 0f 3c bd
       -0.13977943 -0.050065026 -0.035444506 -0.045913488
000270 c6 29 5f b9 56 ce ba bd dc c4 af 3d 12 e9 31 3c
       -0.00021282499 -0.09121387 0.0858247 0.010858791
000280 80 d5 f5 3c af d8 87 bc 98 27 c0 3d 40 c2 0c be
       0.030009031 -0.016582815 0.09382552 -0.13745975
000290 07 f1 05 bd 97 a9 f2 bd 2c 7b a3 be d8 54 09 be
       -0.032700565 -0.11848753 -0.3192991 -0.13411272
0002a0 97 a1 d5 bc 15 55 2e be e7 1d 2d be 51 bd b8 3b
       -0.026078029 -0.17024644 -0.16905938 0.0056378026
0002b0 95 aa ab bc 1d f7 82 3d b4 f4 7c be 0c 2b 24 be
       -0.020955363 0.06394789 -0.24702722 -0.16032046
0002c0 ff 44 e6 bd f8 83 42 be 70 84 9c be cf 39 24 be
       -0.11243629 -0.18995655 -0.30569792 -0.16037677
0002d0 e8 a8 70 bd 80 37 69 bd 37 00 c8 3d cd 2b 37 be
       -0.05875483 -0.056937695 0.09765666 -0.17887802
0002e0 56 fb 0f be 9f c3 12 be 91 2a 26 3d 02 24 aa 3c
       -0.14060721 -0.14332436 0.04056794 0.020769123
0002f0 4b 58 18 3e f4 c3 fb 3e 03 f4 4e 3e c8 55 56 3e
       0.14877431 0.49172938 0.2021027 0.2093116
000300 86 db 8a 3e 43 1b 74 3d 50 ce 7a bd 46 51 ce 3e
       0.27120608 0.05959631 -0.06123191 0.40296382
000310 17 f2 e6 3d 68 29 1b 3e 7e df b6 3c f6 e8 81 3c
       0.11276644 0.15152514 0.022323366 0.015858155
000320 f7 04 f9 3c 43 f9 fb 3d c4 24 57 bc ad ab 1a bc
       0.030397875 0.12303402 -0.013131324 -0.009440345
000330 db cc 41 bd 41 42 cb 3d 6c eb a2 3c 64 6c 3d bf
       -0.047314506 0.09924746 0.019887649 -0.73993516
000340 e6 e5 98 bd d8 f5 e7 bb 4f 8a 63 bf 9e 35 0c be
       -0.07465725 -0.0070788674 -0.8888292 -0.13692328
000350 fa 69 39 be cb 4b 24 bf c1 f7 ed 3d 8a f7 40 3e
       -0.18106833 -0.6417815 0.11619521 0.18844429
000360 44 aa 93 bc 29 4d 6a bd 2e 98 07 bd 62 58 18 bd
       -0.018025525 -0.057202492 -0.033104114 -0.037193663
000370 9e 7a 3b 3c 18 e4 44 3d 2b 4b 81 bc bb 6e 88 bc
       0.011442808 0.04806909 -0.015782913 -0.016654363
000380 55 65 3c bd 88 d9 8b be 18 64 bc be 88 fd 52 be
       -0.045995075 -0.273144 -0.36795115 -0.20604527
000390 3c 8d 13 be 07 f8 91 be f2 f1 7a 3d 5f ad ac be
       -0.14409345 -0.28509542 0.061265893 -0.33726022
0003a0 0f e6 08 bf 12 6a 57 be 03 82 4f 3f 2f 4a c2 3e
       -0.5347604 -0.21036556 0.8105776 0.37947223
0003b0 4f f3 a8 3e 68 72 57 3f b1 13 fe 3e df c8 bf 3e
       0.3299813 0.84158945 0.49624398 0.3745794
0003c0 b4 c3 40 3f 4a 55 dc 3e 0f cc 98 3e 1f 25 83 3c
       0.7529862 0.4303382 0.29843184 0.016008912
0003d0 3e 1e be bd 3f 02 98 bd b6 5d a9 bd a0 4f da be
       -0.09283112 -0.074223034 -0.08269827 -0.42638874
0003e0 d3 03 38 be a8 e3 ab bd 96 72 af be 31 f1 df bd
       -0.17970209 -0.08393031 -0.3426711 -0.109346755
0003f0 35 e0 00 3e 1a f2 1b be 3f 97 c7 bd a1 b7 8d 3d
       0.12585528 -0.15229073 -0.09745645 0.0691979

0.conv1_2.0.bias f4 [32]
000000 d4 77 1b 3d f9 52 91 be 03 c9 04 3e 36 8a d6 3b
       0.037956074 -0.28383616 0.12967305 0.0065472377
000010 d8 02 12 3e 5e 65 99 3d 3b ac 10 3d f6 db 00 be
       0.14258897 0.074900374 0.0353205 -0.12583908
000020 96 99 07 3e 7c b6 c9 bd 46 6a 20 3e d9 23 37 be
       0.13242182 -0.09849259 0.1566554 -0.17884769
000030 e3 3e 5b 3d 4d a5 95 3d 37 67 88 bd cb 14 c3 3d
       0.05352677 0.07306919 -0.06660312 0.0952545
000040 b0 c8 c9 bd 39 1c 22 3e 51 6c 4f bc cf f1 0a 3e
       -0.09852731 0.15831079 -0.012660102 0.13568805
000050 6f bb 09 3c 29 9e b2 be 98 ed c2 3d 96 60 50 3e
       0.008406504 -0.34886292 0.09517974 0.20349345
000060 61 17 67 bd 34 40 06 be 33 7e 6b be 2f 7d 86 3e
       -0.05641878 -0.13110429 -0.2299736 0.26267383
000070 91 6a 5a bd bf dc 37 3d 98 72 8b bd 66 e4 9a 3c
       -0.053324286 0.044888254 -0.068089664 0.018907737

0.conv1_2.2.weight f4 [32]
000000 d8 c0 77 3f 24 2c 95 3f be d7 3c 3f a4 dd 6b 3f
       0.9677863 1.1654096 0.73766696 0.9213507
000010 a1 a6 c0 3f 9a e8 94 3f 35 42 3b 3f c9 0c 4d 3f
       1.5050851 1.1633484 0.731479 0.80097634
000020 04 6a 5e 3f 16 ef cf 3e 08 31 8c 3f 2e b7 57 3f
       0.86880517 0.40612096 1.0952463 0.84263885
000030 64 bf 62 3f 33 5b 4d 3f 1f ea 63 3f 2a f3 83 3f
       0.8857329 0.80217284 0.89029115 1.0308583
000040 5f 32 6d 3f 8e fe ce 3e 13 4b 31 3f df 6d ec 3f
       0.92654985 0.40428585 0.6925518 1.847103
000050 23 50 42 3f cd 17 7b 3f c1 6e 83 3f 9c fd bc 3f
       0.7590353 0.9808319 1.0268174 1.4764895
000060 4b 04 63 3f 8f bd 18 3f b2 a6 7b 3f f4 28 ce 3f
       0.88678426 0.59664243 0.9830123 1.6106248
000070 59 37 03 3f 6d b2 56 3f a7 39 61 3f 6a c9 6e 3f
       0.5125633 0.83866006 0.87978595 0.93276083

0.conv1_2.2.bias f4 [32]
000000 71 3d 77 3e b4 4c 12 bf 59 c6 fe be a4 7f f8 be
       0.24144532 -0.5714829 -0.49760702 -0.48534882
000010 b2 38 34 bd 42 94 8d 3d 24 65 09 3e 3e f6 79 3e
       -0.04399938 0.069130436 0.13417488 0.2441034
000020 14 2c b6 3d 3e a8 e9 3e 9b 97 0b 3d b0 99 5e be
       0.08895126 0.4563617 0.03408013 -0.21738315
000030 04 f1 82 be 0a b8 51 3e f9 d0 9b bd b8 77 21 bf
       -0.25574505 0.20480362 -0.07608218 -0.630733
000040 fa 93 15 be 9f 96 a9 be 6f a2 d5 be b2 ae 06 3e
       -0.1460723 -0.33122727 -0.4172549 0.13152578
000050 9a 52 d5 3e c7 95 99 be da 8f b9 3e 48 fe 90 3c
       0.41664582 -0.29997084 0.36242563 0.017699376
000060 fa 4f 96 3b 84 33 2e bd 43 dc 73 be 45 ba bb 3c
       0.0045871707 -0.042529598 -0.23814492 0.022915969
000070 88 39 f5 bd 2d a5 73 3d 3c ca 3e bd ad 4f 44 3d
       -0.11973864 0.059483696 -0.046579584 0.047927547

0.conv1_2.2.running_mean f4 [32]
000000 39 d5 d6 3f 04 00 00 00 c5 d5 07 3e c9 cd 93 3d
       1.678382 6e-45 0.1326514 0.07216985
000010 7c 0c f6 3f 0d 07 83 3e 08 55 6f 3e af c8 c3 3f
       1.922256 0.25591317 0.2337228 1.5295619
000020 88 73 e1 3f d4 d4 db 40 81 e5 10 40 04 00 00 00
       1.7613382 6.86973 2.2640078 6e-45
000030 a7 eb bb 3d 58 7b fa 3e 2b 6a 95 3f cc c5 4b 3e
       0.091758065 0.4892223 1.1673025 0.19899672
000040 7a e9 ac 3d 5e 24 7c 40 c8 94 af 3d 3f 9c 0d 40
       0.084429696 3.9397197 0.085733 2.2126615
000050 2f dd 06 40 04 00 00 00 9b a5 ad 3e b5 51 39 40
       2.10725 6e-45 0.3391541 2.895612
000060 9c 54 78 3e 39 f2 b5 3e 04 00 00 00 af 2a ed 3f
       0.24251026 0.35536364 6e-45 1.8528651
000070 fb c1 f9 3f 27 f1 d3 3f a8 b3 10 3f 3e 19 2c 3f
       1.9512323 1.6557969 0.56524134 0.67226017

0.conv1_2.2.running_var f4 [32]
000000 4f 78 36 40 04 00 00 00 dc 50 4a 3e d0 95 70 3e
       2.851093 6e-45 0.19757408 0.23494649
000010 cf 55 3b 40 b5 7f 3a 3f 18 5f 9c 3e ff a3 f8 3f
       2.9271123 0.72851115 0.305413 1.9425048
000020 d9 4c e6 3f 4c cd ce 41 68 ff c3 3f 04 00 00 00
       1.7992202 25.850243 1.5312319 6e-45
000030 d1 e3 a0 3e e2 12 8d 3f 76 e4 4e 40 eb 21 d4 3e
       0.3142381 1.1021388 3.2326941 0.41432127
000040 17 89 71 3e a5 f4 30 41 c4 f6 b1 3d 42 66 35 40
       0.23587452 11.059728 0.08689645 2.8343663
000050 3d bd 4c 3f 04 00 00 00 29 5a 82 3f 21 4f 42 40
       0.79976255 6e-45 1.0183765 3.0360796
000060 19 85 aa 3e ca 90 02 3f 04 00 00 00 73 87 03 40
       0.3330467 0.5100218 6e-45 2.0551422
000070 4c e4 75 40 bb 95 40 40 8f fb 95 3f c2 59 96 3f
       3.8420591 3.0091388 1.1717395 1.1746142

0.conv1_3.0.weight f4 [32, 32, 3, 3]
000000 b3 cf 0a 3e bf 87 ca 3b 0f d9 96 bd 66 30 4b 3c
       0.13555793 0.006180733 -0.073656194 0.012401676
000010 1c dd 39 be 73 28 8c ba 2a ef 36 3b 14 56 aa bd
       -0.18150753 -0.0010693207 0.002791355 -0.08317199
000020 9b 5d d9 bb 74 1d 9a 3c e2 3e 73 bd 72 98 12 bd
       -0.006633473 0.018812872 -0.05938614 -0.035789914
000030 d8 1f 5a 3c f5 d0 2a bd e0 05 9f bd 88 1e 5a 3c
       0.013313256 -0.041703183 -0.077647924 0.013312943
000040 2b e7 15 3a ae 7a 74 bd d0 09 e4 b9 9b b0 dd 3d
       0.00057183456 -0.05968731 -0.0004349486 0.108247004
000050 ea 1c ba 3d 68 bf ba 3d 30 67 a7 3d 3c b7 b2 3c
       0.09087546 0.09118539 0.08173978 0.021815889
000060 5e f3 60 3d 62 b9 b1 3c 98 d5 e7 3b 1f b3 e6 3c
       0.054919593 0.021694843 0.007075023 0.028161583
000070 5c cf bf 3d 08 ff cc 3a 28 00 18 3d f2 49 06 3e
       0.093657225 0.001563997 0.037109524 0.13114145
000080 f8 64 0a 3e 74 08 ab 3c fb 4b bd 3b 99 22 5e 3d
       0.13515079 0.020878054 0.00577688 0.054232214
000090 4b 0c 1b 3d ff 3d 40 be af 3c 61 bd af ba 85 be
       0.03785352 -0.1877365 -0.054989513 -0.2611899
0000a0 cd fe be bd e5 94 00 3e a0 3c 75 3e cd 55 cf 3e
       -0.09325943 0.12556799 0.23948908 0.40495148
0000b0 ef 4e 13 3e 11 ef 17 bc dd 7c c5 bd b5 f7 96 bd
       0.1438558 -0.0092733065 -0.096429564 -0.07371465
0000c0 89 b0 91 bd 26 3a 31 bd f8 a6 d5 bd fc dc 3e bd
       -0.071137495 -0.043268345 -0.104322374 -0.046597466
0000d0 da 8a e1 bd 3f 3d 05 be e0 59 15 3d 43 7e ac bd
       -0.11012812 -0.13011645 0.036462665 -0.0842252
0000e0 9a 59 b8 bc d8 88 5f 3d 38 75 be 3c e7 e1 15 bd
       -0.022503663 0.054573864 0.023249254 -0.03659239
0000f0 15 42 0d 3c c2 2c 43 bd 8c 15 70 3d 18 5a 31 bd
       0.008621712 -0.047650106 0.0586143 -0.04329881
000100 87 1e 19 3d 76 58 6f 3d d0 98 99 3c 89 c5 65 bb
       0.03738263 0.058433972 0.018749624 -0.0035060367
000110 e1 05 57 3d 42 ca 20 bd 19 3b 2d be 88 21 0b be
       0.05249584 -0.039255388 -0.16917075 -0.1358701
000120 e9 b2 a4 3d 66 79 96 3b 7a 3a 1c bd 7b 0f 83 bd
       0.08041937 0.0045921085 -0.038141705 -0.06399437
000130 94 ef c1 bd 62 b8 e9 bd 5d e7 38 3d 6a 1c 42 bc
       -0.09469524 -0.11412121 0.04514252 -0.011847595
000140 f6 e0 37 bd 4f 19 cc bd 80 be ab bd ef 74 c4 bd
       -0.044892274 -0.09965765 -0.08385944 -0.09592616
000150 f4 ff 01 3c e0 14 36 bd 2c 99 4d bd e7 fa a6 3d
       0.007934559 -0.0444535 -0.050194904 0.081533246
000160 e9 67 63 3d 79 80 71 3d 76 cf 54 3e 32 f5 1d bd
       0.05551902 0.05896041 0.20782265 -0.038563915
000170 f8 b1 fd 3c 8c 30 20 bd 88 64 94 bd a3 48 9c 3d
       0.030968651 -0.039108798 -0.07245737 0.07631042
000180 cc 75 4b 3d 3d 2c da 3d 38 bf 66 3d ec 3a 8a 3d
       0.049672887 0.10652969 0.056334704 0.0674952
000190 3e c3 8d 3d 19 ad ae 3d e1 e5 03 3d 7a 52 ab 3d
       0.06922005 0.085291095 0.03220165 0.083653405
0001a0 9b 54 47 3d 50 cd b5 3d 0e 44 b1 3d 70 14 26 3a
       0.04866467 0.08877051 0.086555585 0.0006335443
0001b0 ba 18 ff 3b d7 6b bb 3c 38 c2 b3 3c 84 4f 05 bd
       0.00778493 0.02287857 0.021943197 -0.032546535
0001c0 a8 75 69 bd 17 d9 91 3a 49 68 40 3c fe 2b 81 3c
       -0.05699697 0.001112732 0.0117436135 0.015768047
0001d0 2a 17 34 3c b4 fb dc bc a4 57 bd bd d3 b6 a8 bd
       0.010991851 -0.02697549 -0.09245232 -0.08237996
0001e0 bb fa de bd be 49 d7 bd e0 fe bd 3d e8 22 a6 bd
       -0.10887667 -0.10512112 0.09277129 -0.081121266
0001f0 e0 ad 9c 3c 0e c7 3f 3e 78 00 4f 3c 75 00 90 bd
       0.019125879 0.18728277 0.012634389 -0.07031337
000200 46 4a 09 be bb f0 b7 bd e5 de 2b bd 2d 30 01 be
       -0.1340724 -0.089814626 -0.041960616 -0.12616034
000210 0b 74 3f 3d 12 94 05 3e c2 3e 0d 3d 97 8e c6 3d
       0.046741527 0.13044766 0.03448368 0.096951656
000220 cd ad 5d 3d d0 64 28 bd 7c 7e c5 3d 9e 45 a4 3d
       0.054120827 -0.041111767 0.096432656 0.08021091
000230 0c 32 94 3d c6 ea 51 3d db ec 34 bc 9e 42 22 bd
       0.07236108 0.051249288 -0.011042799 -0.039614312
000240 64 90 d3 3d e8 f4 b5 3d b4 83 1c bd 81 3b 9d 3c
       0.10330275 0.08884603 -0.03821154 0.019193413
000250 f7 de 31 3d 19 2c 0d 3c d0 6d 06 bc c4 1f c7 bd
       0.043425526 0.008616471 -0.008204892 -0.09722856
000260 5f f2 14 bd 3e d0 81 3c d7 c1 54 bd c7 f3 a5 bd
       -0.036363956 0.015846368 -0.051942673 -0.081031375
000270 09 24 1c 3d 35 29 e3 3d 97 bd 8e 3d 7c be 96 3d
       0.038120303 0.11091844 0.06969755 0.07360551
000280 b7 4f 9d 3d 20 6f bf 3d eb 5f 08 bd eb 23 89 bd
       0.0768122 0.09347367 -0.0332946 -0.06696304
000290 5c db cf bc 46 57 4e bd 66 6f 82 bc 25 42 74 bd
       -0.025373153 -0.0503762 -0.01592226 -0.059633393
0002a0 ec 0f 86 3c 25 65 03 bc 04 cd 14 bd 98 1b 4d 3e
       0.016365014 -0.00801972 -0.03632833 0.20030057
0002b0 b3 6b 33 3e 8f 6d ea bc f4 ed b8 bd df e4 d2 be
       0.17521553 -0.028616695 -0.09029761 -0.4119024
0002c0 03 21 30 be 15 34 ac bd 14 62 0e 3e 5f 0b 5c 3e
       -0.17200093 -0.08408371 0.13904601 0.21488713
0002d0 56 c7 11 bd 80 fd c8 bd 5a 8b ec bd ca 86 63 3d
       -0.035590492 -0.09813976 -0.11550017 0.055548467
0002e0 90 82 80 3c f1 0e 9a 3d 47 e7 3a 3e 14 b7 4a 3e
       0.015687257 0.07522381 0.18252288 0.19796401
0002f0 ac 37 e2 3d 7c 6d da bb 3a 20 8d 3d 3b 69 30 3c
       0.11045775 -0.0066658836 0.06890912 0.010767276
000300 ed 3f a2 3c 2c 28 49 ba 66 1e e9 3b c8 f4 28 bd
       0.019805873 -0.00076735276 0.0071142195 -0.041249067
000310 ce 17 78 3d 86 4b 01 3d 0a 93 c6 bd 0f 5e 38 be
       0.060569577 0.031566165 -0.09696014 -0.1800463
000320 94 80 bb bd de a0 2c be 02 1e 94 bd 28 57 27 be
       -0.09155384 -0.16858241 -0.07232286 -0.16341841
000330 2a b9 77 bd 2d 98 6a bd 7c d8 11 be ef a3 70 3e
       -0.06047932 -0.057274032 -0.14242738 0.23500036
000340 e9 44 8a 3d 4c a8 48 3e fc 2d a8 3c 45 33 7a be
       0.06751425 0.1959545 0.02052974 -0.2443362
000350 34 81 d8 3d b0 0a 54 be 53 0e 27 be 3b 0d ac 3c
       0.105715185 -0.20707202 -0.16314058 0.021002403
000360 dd ae ff bc 2c 0a b6 3d 70 68 87 3d ba c5 46 3d
       -0.031211311 0.08888659 0.06611717 0.04852841
000370 f7 83 61 3e 25 db 38 3e 64 60 bb bd d7 67 69 3d
       0.22022997 0.18052347 -0.091492444 0.056983795
000380 7d b5 3b bd 23 e9 b2 bd 80 3e 6e bd 18 73 8a bd
       -0.045827378 -0.087358736 -0.058165073 -0.06760234
000390 fb 24 8d 3c bc 4d ac bc 38 de 65 bc 64 2b aa bd
       0.017229548 -0.02103316 -0.014030032 -0.08309057
0003a0 ad 91 3b 3d da a3 ce 3d 1b ec 10 3d 40 e6 19 3d
       0.045793224 0.10089846 0.035381418 0.0375731
0003b0 2b 90 a0 3d 4e a2 2a bc 27 62 0e 3d 28 e8 60 3d
       0.07839998 -0.010414673 0.034761574 0.0549089
0003c0 7c d1 5d bd 7f cf c4 bc be 3b 0e 3d 23 26 d5 3e
       -0.054154858 -0.024024723 0.034724943 0.41630659
0003d0 b6 b7 03 be d7 5b 5d bd 6c 69 88 be 95 f1 93 be
       -0.12863049 -0.054042663 -0.2664293 -0.2889525
0003e0 ca 34 61 3e 08 ee c7 3c 0d 98 c9 3e 98 9b 8e 3d
       0.21992794 0.024405494 0.39373818 0.06963271
0003f0 be 15 01 bd e1 79 ee bc ce 60 98 bd 3f 5e 25 3d
       -0.031514876 -0.02911085 -0.07440339 0.040373083

0.conv1_3.0.bias f4 [32]
000000 c8 bd 29 be 18 03 a1 3c 9a bd 62 bd a6 c3 13 be
       -0.16576302 0.019654796 -0.0553566 -0.14430103
000010 5c 65 cb bc dc a2 19 bd 20 cc 2c ba 2f b5 36 bd
       -0.024828605 -0.03750883 -0.00065916963 -0.044606384
000020 1e a6 27 3d b4 b0 de bd a0 19 ba bd ed ad c1 bd
       0.040929906 -0.10873547 -0.09086919 -0.09457002
000030 50 75 1b be f3 24 4c 3d 4f 5c f7 bb 21 1e e3 bd
       -0.1518147 0.049839925 -0.007548846 -0.11089731
000040 9c 79 78 3d 0f c1 92 bd 59 ce 87 bd 38 ad 9b 3d
       0.06066285 -0.07165729 -0.066311546 0.07601398
000050 15 64 ee bd 6c e2 dc bc 95 ed 8b bc 4a fa 43 bd
       -0.11640183 -0.026963435 -0.017081061 -0.047846116
000060 bf c6 2a bd 7b 95 25 bd db f3 86 3c e9 d8 9c bd
       -0.041693445 -0.04042576 0.016473701 -0.0765856
000070 e0 95 22 bd 44 6e c8 bd 9d 3b da bb ef 8d b3 bd
       -0.039693713 -0.097866565 -0.0066599385 -0.08767306

0.conv1_3.2.weight f4 [32]
000000 60 1c a4 3f 1a 05 6e 3f cc b1 8c 3f 0b 57 a0 3f
       1.2821159 0.92976534 1.0991759 1.2526563
000010 ec 67 70 3f 6b 31 54 3f 4c 16 3e 3f 7a 87 74 3f
       0.9390857 0.82887906 0.7425277 0.9551922
000020 53 b8 96 3f 77 22 8a 3f 97 a4 59 3f 4d 09 6d 3f
       1.1775001 1.0791768 0.8501677 0.92592317
000030 de 3e 86 3f 8f 9e 5d 3f f6 f8 6b 3f e3 65 95 3f
       1.0487936 0.86570066 0.9217676 1.1671718
000040 d4 7b 67 3f 1e 2b 84 3f e7 6c 71 3f 34 f0 75 3f
       0.9042332 1.0325658 0.94306797 0.96069646
000050 88 70 7c 3f 4e 7b 5a 3f 6e 0d 6b 3f 8c 17 50 3f
       0.9860921 0.853444 0.9181737 0.8128593
000060 be ec 65 3f 9a 77 73 3f 3b b2 5b 3f 35 50 84 3f
       0.89814365 0.9510437 0.85818833 1.0336977
000070 68 78 91 3f bf 05 85 3f 63 b1 8e 3f b8 f2 83 3f
       1.136487 1.0392379 1.1147884 1.0308447

0.conv1_3.2.bias f4 [32]
000000 4a b5 b6 bc 0a 9e 9d 3e f5 f5 01 bf 0c d6 c7 be
       -0.022303242 0.30784637 -0.50765926 -0.39030492
000010 dd b8 62 3d 98 02 66 3e fd 44 cd 3d 0c 90 f7 bd
       0.05535208 0.22461927 0.10022924 -0.12088022
000020 d3 21 a4 bd 88 a2 ae be f2 49 89 be 9f 2b 64 3e
       -0.08014264 -0.34108377 -0.26814228 0.22282265
000030 82 17 be be ba ad af 3e 53 64 ba 3d fb 3b f9 be
       -0.3712731 0.3431223 0.091011666 -0.48678574
000040 78 04 e2 bd c9 10 86 be 28 2e 1a 3e 3c 10 92 3d
       -0.110360086 -0.2618468 0.1505667 0.07132003
000050 1f c9 a6 be 97 f4 a6 3d fc c0 fd 3d 47 be 4a be
       -0.32575318 0.081521206 0.123903245 -0.19799148
000060 e2 54 56 3e 1f 28 3b be b7 0c 8f 3d 7f 48 49 be
       0.20930818 -0.18277024 0.06984847 -0.19656561
000070 cc 7b 91 3e 88 c2 6b be 8f c1 69 3e aa d8 8b 3d
       0.28414762 -0.23023427 0.22827743 0.06828435

0.conv1_3.2.running_mean f4 [32]
000000 86 4f 1d 3f 56 c4 d4 3f 35 fa a2 3e 78 78 4d 3f
       0.6144947 1.6622417 0.31831518 0.80261946
000010 27 2a 86 3f 6b 22 e3 3e c6 cc d9 3f a5 6a 8d 3e
       1.0481614 0.44362196 1.7015617 0.27620426
000020 1c 62 2c 3f fb 92 08 3e 6b 42 85 3e ed a7 9c 3f
       0.67337203 0.13337319 0.26027235 1.2238747
000030 25 b6 02 3e b9 15 c5 3f c3 29 91 3f 63 4f bc 3e
       0.12764795 1.5397254 1.134087 0.36779317
000040 8e 1e 89 3f f6 56 2d 3e 28 b1 47 3f 69 17 d6 3f
       1.071245 0.16927704 0.78004694 1.6725894
000050 7f 42 a5 3e 49 f8 98 3f 5b 40 1a 3f 6a d2 e9 3d
       0.32277295 1.1950771 0.6025445 0.114170864
000060 4a 4f fc 3e b5 c0 c7 3e 38 61 6a 3f 07 d3 1f 3f
       0.49279243 0.3901421 0.91554594 0.6243138
000070 2e aa c4 3f c0 49 94 3e e0 ee ab 3f 86 df f2 3e
       1.5364435 0.28962517 1.3432274 0.4743616

0.conv1_3.2.running_var f4 [32]
000000 60 7d 14 40 7b 09 c1 40 1c 0d c6 3f 55 24 bd 40
       2.3201523 6.0324073 1.5472751 5.910685
000010 96 d3 5c 40 88 c9 38 3f 18 03 83 40 c1 a2 3d 3f
       3.4504142 0.7218251 4.0941277 0.7407647
000020 f3 d8 f3 3f 3a 03 03 3f fd d4 4a 3f cf 8c b1 40
       1.9050583 0.511768 0.79231244 5.5484385
000030 81 08 ae 3e 18 2e 86 40 cd c5 5a 40 fa 7e 09 40
       0.33990863 4.1931267 3.4183228 2.148375
000040 06 a8 a6 3f 40 50 d4 3e b4 5b f6 3f 1d e5 36 40
       1.3020027 0.41467476 1.9246736 2.857734
000050 53 29 c6 3f 40 e3 31 40 de f9 92 3f d6 ea 8b 3e
       1.5481361 2.7794952 1.1482503 0.27327603
000060 05 64 ae 3f c5 14 7f 3f 80 5e a8 3f 43 fe e2 3f
       1.3624274 0.99641067 1.3153839 1.7733845
000070 7c d4 0a 41 02 a9 5b 3f 9f 5a f6 40 c0 67 94 3f
       8.676876 0.8580476 7.698562 1.1594162

0.conv2_1.0.weight f4 [32, 32, 3, 3]
000000 b1 8d 41 bd a4 92 41 bd 5b 94 21 3d 34 0a a2 bc
       -0.047254268 -0.047258988 0.039448123 -0.019780256
000010 65 24 8d bd 01 17 6b 3c 09 5a eb bc a4 6c ac bd
       -0.06891707 0.014348746 -0.028729456 -0.08419159
000020 2b c5 e6 bc 23 f0 96 3d ed f1 b8 3c f8 2c 91 bc
       -0.028170189 0.07370021 0.022576297 -0.017721638
000030 7c 46 7b 3d 06 d5 97 3d 35 09 80 3a 58 72 db 3d
       0.061346516 0.07413678 0.0009768369 0.10715169
000040 d3 4e a1 3d d2 08 40 3c a7 6f 5f be 30 c5 3d bd
       0.07876363 0.011720853 -0.21819936 -0.04633063
000050 4f b7 d9 bd b2 5a 5b be 58 37 9f ba 86 17 0b 3d
       -0.106306665 -0.21421316 -0.0012147231 0.03395798
000060 1c 50 3d bc ac ab b2 bc c7 43 09 3c 2b 84 dc bd
       -0.011554744 -0.021810375 0.008377976 -0.107673965
000070 c7 c8 d1 bc 24 0a 09 bd ad c7 d1 3b d7 ab 2a 3d
       -0.025608433 -0.033456936 0.006401977 0.041667785
000080 be 61 83 3c ae b8 86 3d 2d 16 69 3d 9c 07 09 3e
       0.016037818 0.065781936 0.056905914 0.13381809
000090 40 69 bc bd fd c7 23 bb bc 8b f4 bc 15 a1 a4 3b
       -0.09199762 -0.0024991028 -0.029851787 0.0050240853
0000a0 f6 62 44 3d e1 aa e3 bc 26 2f 67 bd 53 7d ae bc
       0.04794594 -0.027791442 -0.05644145 -0.021299994
0000b0 57 d7 e4 bd 7d 4d 2b bc e3 79 e5 3d 99 88 ca 3b
       -0.11173885 -0.010455486 0.11204889 0.0061808345
0000c0 6c 63 5d bd e0 7f a6 3d fc ad b5 3c 9f bd 82 bd
       -0.054049894 0.08129859 0.022177689 -0.063838236
0000d0 c6 13 6f bd 33 52 e9 bd 51 e4 a6 3c 67 ec aa bd
       -0.058368467 -0.113926314 0.020372542 -0.083458714
0000e0 93 96 4b bd 19 25 87 bb 18 f2 78 bd 37 37 b7 bc
       -0.049704146 -0.0041242954 -0.060777754 -0.022365196
0000f0 47 10 ae bd 9a da 82 bd 37 9f 0e be e0 30 51 bd
       -0.084991984 -0.06389351 -0.13927923 -0.051072
000100 eb 30 ee 3b 72 44 84 3d 7c 50 7a bd b2 04 8f 3c
       0.007269015 0.064583674 -0.061111912 0.017458294
000110 bf 54 26 3d 02 cb dc 3b 02 b0 27 3d 9d 66 b2 bb
       0.040608164 0.0067380676 0.04093934 -0.0054443614
000120 44 b3 a7 bc 1a 1b 59 3d a9 0a 5e 3d 4d 57 6c bd
       -0.020471223 0.05300436 0.054209385 -0.057700444
000130 cf 7d 54 bc 09 3f f7 3d 86 e1 f3 bd 52 40 d8 bc
       -0.012969448 0.1207257 -0.119082496 -0.026397858
000140 2e d5 f4 bb 39 25 0e be c2 33 e0 bd 3a ab 2c be
       -0.007471702 -0.13881387 -0.10947372 -0.16862193
000150 24 13 98 bd d1 0e 03 be b1 28 ed bd 2d 09 14 3d
       -0.07425526 -0.12798621 -0.11580027 0.036141563
000160 0d 4a 9e 3d 33 e7 d1 3b fc 75 ab bd 31 68 69 bd
       0.07728968 0.006405735 -0.08372113 -0.05698413
000170 93 21 fe bc a4 df 13 be 44 bd 5e bb 67 f2 4f 3d
       -0.031021869 -0.14440781 -0.0033987323 0.050768282
000180 83 dc b2 bc f2 fb 08 3d 3b c0 96 3d 08 de 8c 3d
       -0.021833664 0.0334434 0.07360884 0.068782866
000190 41 39 a5 b9 40 83 d6 bd db f1 a5 3d af c4 b5 bd
       -0.0003151391 -0.10474253 0.08102771 -0.08875405
0001a0 9a 8c 91 bd b5 a1 f0 3d 7e 3c 9b bc 24 ec cc 3c
       -0.07106896 0.11749593 -0.018949743 0.025014944
0001b0 62 01 31 bd c7 a3 88 3d f9 b9 87 3d f2 fe 97 bd
       -0.04321421 0.06671863 0.06627268 -0.07421674
0001c0 7a 8e 0d 3d 82 6b 4c 3d 8d 06 b5 3c f0 16 73 3c
       0.034559704 0.049907215 0.02209785 0.014837012
0001d0 34 db ff 3d bd 35 3b 3e 1d 33 6d 3d 47 31 85 bd
       0.124929816 0.18282218 0.057910074 -0.065035395
0001e0 e2 96 a2 3d 9c d9 c5 bb d6 84 ae bd 5e 73 6a 3d
       0.07938935 -0.006037904 -0.0852143 0.05723893
0001f0 68 e7 ad b7 3e 51 1b bd 7e ab 8e 3b ea d8 a0 3d
       -2.0730964e-05 -0.037919275 0.0043539396 0.07853873
000200 b3 44 c4 3d 1f 0c 3b bd 1a 61 ca 3d 09 d6 45 3c
       0.09583416 -0.045665856 0.09881802 0.012074956
000210 88 3f 9b bb d4 d4 03 bd 16 eb a6 bd d1 a4 1a be
       -0.004737798 -0.03218539 -0.08150308 -0.15101935
000220 0a a5 de bd b2 e0 df bd fa 01 35 be 0c b5 c2 bd
       -0.108713225 -0.10931529 -0.17676535 -0.09507188
000230 4d 9f b0 bd d3 3b e7 bc 57 7c 95 3d fa c6 f5 bc
       -0.08624134 -0.028226769 0.072991066 -0.030002106
000240 f5 0b e6 bd c5 3a b5 bd 55 aa a8 bd 7b 2e 40 bd
       -0.112327494 -0.088491 -0.08235613 -0.046919327
000250 73 94 44 3c f0 e1 e5 3b d2 d4 37 be 36 26 95 bd
       0.011998284 0.0070154592 -0.17952278 -0.07282679
000260 55 21 19 be 76 2b 7c bc 48 d2 db 3c 07 a3 ce 3d
       -0.14954121 -0.015391221 0.026833668 0.10089689
000270 d9 7a 16 3d 87 e3 09 bc d2 3f b7 3d 46 78 54 bc
       0.03673825 -0.008416063 0.0894772 -0.012968129
000280 e1 4b 34 3c e3 e5 06 3e 07 33 a7 3c f0 27 f2 3d
       0.011004419 0.13173632 0.020410074 0.11824024
000290 f5 06 0c bd 33 d5 fd bc e1 3c 5c bc ca c2 9d bd
       -0.034186322 -0.03098545 -0.013442249 -0.07703169
0002a0 3d 37 0e bc 1e f3 dc 3b 35 f8 0a 3c fc 74 bd bd
       -0.008680162 0.006742849 0.008482029 -0.092508286
0002b0 62 4d 86 bd 76 d2 d2 bc d3 32 8a bd df 53 ee bc
       -0.06557728 -0.025735121 -0.06747975 -0.029092727
0002c0 1b 6c aa 3c c9 b5 c8 bd ae e5 07 bd 80 96 8a bc
       0.020803502 -0.09800298 -0.033178024 -0.016917467
0002d0 fe df 9e bd 5e ca 98 3c c4 7b 98 bc 72 a9 ec bd
       -0.07757567 0.018651184 -0.018613704 -0.11555757
0002e0 1a 69 44 bd 4a b0 c6 bb 44 cd a7 bd d1 58 4e bd
       -0.047951795 -0.0060634958 -0.08193448 -0.05037767
0002f0 05 52 90 3d 8a 8e df bb 5d f1 2b 3d 83 77 33 bc
       0.07046894 -0.006822412 0.04197823 -0.010953787
000300 65 2e 66 3b 3d cd 93 3a 7f e6 cb 3d 0f 6a c8 bb
       0.0035122868 0.0011276376 0.09956073 -0.006116159
000310 52 ec 83 bc 37 65 e0 bc ef 82 51 bd 13 24 bf 3c
       -0.016103897 -0.027392013 -0.05115026 0.023332631
000320 b2 b4 1a 3b 3a dd 26 bd 3c 1f 92 bd 9b a8 81 bd
       0.0023606238 -0.04073832 -0.07134864 -0.06330987
000330 83 34 03 be 65 9f 46 bd a5 99 2d bd 59 bd 8f bd
       -0.12813 -0.048491854 -0.042382855 -0.07018537
000340 8c fd 38 bd 7e d2 1f 3d de d7 c7 bd a7 b9 ce bc
       -0.045163676 0.0390191 -0.0975797 -0.02523501
000350 78 62 e9 bc 70 c8 96 bd de ed 4d bc db 45 73 bc
       -0.028489336 -0.07362449 -0.012568919 -0.014848198
000360 2d b7 b8 bc 1c ff c6 bc 49 f9 8a 3c 5e 9f 60 bd
       -0.022548283 -0.024291568 0.016964572 -0.054839484
000370 59 ff 45 bb 3d b9 96 bd 03 f6 6e bc 08 28 88 bc
       -0.0030212014 -0.0735955 -0.014585021 -0.01662065
000380 07 cd 1e be 97 7e 7e bd 15 c3 6c 3d 7b 54 01 3e
       -0.15507899 -0.062132444 0.057803232 0.12629883
000390 ea a5 e2 bd d5 44 28 bb 89 3f 46 3d 98 d1 89 bc
       -0.11066802 -0.0025675793 0.048400436 -0.016823575
0003a0 1b d3 b5 3d 40 c5 2e 3d 28 3f 55 3d 4d c9 70 bd
       0.08878156 0.04266858 0.052062184 -0.058785725
0003b0 4b fe 92 3c 3f e2 e0 3c 44 8a fb 3b db 43 6b bb
       0.017943522 0.027451633 0.0076763947 -0.00358986
0003c0 cc f7 5b 3c 47 7e 20 bd 87 57 15 bd e4 ba 6c 3d
       0.013425779 -0.039182927 -0.036460426 0.05779542
0003d0 69 a3 18 3d 4e cd 53 bd 7e 55 fe bc 6d 9b 45 bd
       0.037265215 -0.051709466 -0.031046625 -0.04824393
0003e0 96 5e 2c 3c 08 9c 64 bb bb 8c c6 3c cd 17 16 bc
       0.010520598 -0.003488304 0.024237027 -0.009160948
0003f0 aa fa 3d 3e 68 78 9a 3b 3d 51 d7 bc 92 ef 94 3e
       0.18552652 0.0047140606 -0.026283855 0.29089028

0.conv2_1.0.bias f4 [32]
000000 a2 c0 09 3d 01 b5 24 3d 09 8e 28 3d 6d 0c fb bd
       0.033630975 0.04021168 0.04115108 -0.122582294
000010 28 0c c4 3d b5 5a 7d 3d e6 4d 0f be 6a 32 ab bd
       0.09572631 0.061854083 -0.1399456 -0.08359225
000020 69 62 09 3d 19 58 86 3d 91 a4 63 3d 32 54 0b bd
       0.033541117 0.06559772 0.055576865 -0.03401584
000030 7c c3 05 bd 41 62 25 3c 68 0e ae bc 1e d4 43 bd
       -0.03265713 0.010094226 -0.021247104 -0.047809713
000040 a7 8f 3b bd f1 76 31 be f0 73 48 bd c8 fa bb bd
       -0.045791294 -0.17330529 -0.04893869 -0.09178692
000050 6d 3c e4 bd 22 b8 dc 3c 6c fa 68 bd 94 71 45 bd
       -0.11144338 0.02694327 -0.056879446 -0.04820402
000060 46 4b b8 3d aa d9 1d be fe da 8c 3c 98 00 98 bd
       0.08998732 -0.15415064 0.017194267 -0.07421988
000070 31 c2 c8 bd d0 45 a2 bd f9 0a 1a 3b 48 43 07 be
       -0.09802664 -0.07923472 0.0023505075 -0.1320926

0.conv2_1.2.weight f4 [32]
000000 5f 63 8a 3f c1 92 83 3f 41 1e 5c 3f 73 d6 81 3f
       1.0811576 1.0279161 0.85983664 1.014357
000010 c5 fe 78 3f 1d f8 b5 3f a3 19 72 3f f8 24 83 3f
       0.9726375 1.4216343 0.9457037 1.0245657
000020 4a 4a 66 3f 34 82 66 3f 9c 33 32 3f e9 aa 7e 3f
       0.89957106 0.90042424 0.6961 0.9947954
000030 d4 be 64 3f 24 d3 5c 3f ea 2a 7d 3f 34 7b 8a 3f
       0.8935368 0.86259675 0.98893607 1.0818849
000040 e5 84 84 3f 60 a9 80 3f 6c 11 48 3f d3 80 61 3f
       1.0353056 1.0051689 0.78151584 0.88087195
000050 79 8f 84 3f c0 d6 81 3f 15 a8 69 3f db d3 94 3f
       1.0356284 1.0143661 0.912721 1.1627153
000060 2d e7 66 3f a5 38 b2 3f 92 3a 88 3f bc 4a 89 3f
       0.90196496 1.3923537 1.0642874 1.0725932
000070 7c 56 87 3f 01 fc 5d 3f 1e fa 83 3f 6e 59 8e 3f
       1.0573268 0.8671265 1.0310705 1.1121042

0.conv2_1.2.bias f4 [32]
000000 39 37 4b bd e8 ca d4 bc 5f 51 1e bd e7 89 8f 3e
       -0.04961321 -0.02597566 -0.03865182 0.280349
000010 11 ac df bb f7 78 69 3e 7b c0 43 be b4 86 ce bd
       -0.006825932 0.2280005 -0.19116394 -0.10084286
000020 92 a5 1c be 54 96 21 3d e3 a5 b8 3e e6 18 53 bd
       -0.15297535 0.039450005 0.36064062 -0.051537417
000030 85 aa ee bd f3 58 87 3e ee 07 65 3e 8c e6 bd 3d
       -0.11653618 0.2643505 0.22366306 0.09272489
000040 57 f5 f5 bd 50 14 ed bc 01 7d 2b 3d b2 5c f2 bc
       -0.120096855 -0.02894035 0.04186726 -0.029585216
000050 c6 0d c4 3d 37 d9 9d bc c1 3d 3b 3d ae 8f 94 bd
       0.095729396 -0.019268615 0.04571319 -0.07253967
000060 8b ad 12 be 17 ba b7 3d 64 f2 bc 3c 9c e0 70 be
       -0.14324014 0.08971041 0.0230648 -0.23523182
000070 06 b7 db bc 35 55 77 be cc 50 09 bd b8 9f a2 bd
       -0.02682067 -0.24153598 -0.03352432 -0.0794062

0.conv2_1.2.running_mean f4 [32]
000000 8f 42 ac 3f 34 2b f7 3e 3c 73 1f 3e 50 a1 ba 3f
       1.3457812 0.4827515 0.15571302 1.4580479
000010 78 e8 91 3f ff 1f 3c 3f 55 34 8d 3f 5b 10 5e 3f
       1.1399069 0.7348632 1.1031595 0.86743706
000020 c4 42 74 3f de 77 d1 3f fc 74 5c 3f d4 6a 23 3f
       0.95414376 1.6364706 0.86116004 0.6383488
000030 54 ca 15 40 fb ad 3d 3f bf 7d 5e 40 dd fa cb 3e
       2.3404741 0.740936 3.476425 0.3983983
000040 d9 c9 4c 40 57 cd 1b 40 1b fe 50 3f 72 d6 7a 3f
       3.1998198 2.434408 0.81637734 0.9798347
000050 aa 27 91 3e cf a2 ad 40 5c c0 16 3f 0a 16 70 3f
       0.28350574 5.426124 0.5888727 0.9378363
000060 8f 98 8b 3f 34 53 c1 3e 9f 29 9f 3f c4 e1 58 3f
       1.0905932 0.3775879 1.2434577 0.8471949
000070 75 50 73 3f fa d9 15 40 d3 79 6e 3f 73 9d 70 3f
       0.9504464 2.3414292 0.9315464 0.9399025

0.conv2_1.2.running_var f4 [32]
000000 31 cd 13 40 9f 81 2e 40 49 38 99 3e af 48 88 40
       2.309399 2.7266614 0.29925755 4.2588725
000010 9f fe 5d 40 03 4e 6e 40 04 2f 56 40 8b 65 9b 40
       3.4686658 3.7235115 3.3466196 4.8561454
000020 11 21 87 40 b4 a6 38 40 f5 b8 09 40 2c 56 72 40
       4.2227864 2.8851748 2.151914 3.7865095
000030 1a f4 86 40 50 7e 35 40 58 d7 af 40 64 7c d4 3f
       4.2172976 2.8358345 5.495037 1.6600461
000040 19 3e d4 40 e0 9c c1 40 45 fa 08 40 9c 62 1b 40
       6.6325803 6.0504 2.1402752 2.4278936
000050 26 3c 4f 3f e0 71 43 41 1f 00 b4 3f 55 b3 cd 40
       0.80951154 12.2153015 1.4062537 6.428141
000060 5b d6 46 40 61 f9 29 40 39 c2 bf 40 e9 f2 aa 40
       3.1068332 2.6558459 5.992459 5.342152
000070 71 3a a7 40 5d 96 c0 40 0f 65 7b 40 d4 f8 af 40
       5.225884 6.018355 3.9280431 5.4991245

0.conv2_2.0.weight f4 [32, 32, 3, 3]
000000 e1 99 71 3d b2 e8 00 bd 87 ae e2 3a 9c a9 9f 3d
       0.05898464 -0.031471916 0.0017294445 0.07796022
000010 91 29 fc bc a2 a8 92 bd 9e 00 c1 3d 09 88 00 3e
       -0.03078154 -0.071610704 0.09423946 0.12551893
000020 c1 87 a3 3c d4 a3 2c bc c5 56 4e 3d 54 2e c8 3c
       0.019962193 -0.010537107 0.05037572 0.024436153
000030 8e 3d e8 bd b7 0d 8d 3c 48 27 0e bc af 6c 04 bc
       -0.113398656 0.017218454 -0.008676358 -0.008082553
000040 fa 23 c4 3d f2 06 b3 3d 4e 69 49 bd d8 ce a7 bd
       0.095771745 0.08741559 -0.049172692 -0.08193749
000050 95 7d ed bb 3f e1 69 3c f2 a9 e9 3c 02 b3 3e 3d
       -0.0072476366 0.014274894 0.028523419 0.046557434
000060 ad 36 55 bc 61 65 28 3c f2 d5 0f 3c a0 04 15 bd
       -0.013013524 0.010278077 0.008779036 -0.036381364
000070 9d 02 48 ba 6d d4 84 bc d3 ac 74 3c 81 e1 62 bd
       -0.0007629784 -0.016214574 0.014933783 -0.05539084
000080 23 c7 65 bd 7a 95 c3 bd 09 8e 1c be 39 39 c3 bd
       -0.056098115 -0.09549995 -0.15288557 -0.09532399
000090 fe 40 c5 bd 32 26 a1 bd da 45 6c bd 14 80 3c bd
       -0.09631537 -0.07868613 -0.057683803 -0.046020582
0000a0 db db 2c bd ef 97 99 bd 7a d6 ce 3b 1e f4 a4 bd
       -0.042201858 -0.07499682 0.0063121887 -0.08054374
0000b0 55 5d a8 bd bf af d4 bd 59 15 89 bd 8b 8e 69 bd
       -0.08220927 -0.103850834 -0.06693525 -0.057020705
0000c0 be c2 53 be c4 a7 c8 bd 14 96 da bd 5c d0 04 be
       -0.20679757 -0.09797624 -0.106731564 -0.12970108
0000d0 e9 98 d8 3c 5f f3 c1 bd 26 b5 9c bc 4e 25 a9 3d
       0.0264401 -0.094702475 -0.019129347 0.082590684
0000e0 07 2c 30 3d 21 90 91 3c db 54 06 3d 66 90 39 bd
       0.043010738 0.017768921 0.03279577 -0.045303725
0000f0 9d 3c 28 bd 76 d0 22 3d 27 62 a2 3d 49 3d 51 bb
       -0.04107343 0.039749585 0.07928877 -0.0031927398
000100 36 1b b9 bc fe b2 65 3d bb 1f d7 bd 77 e3 5f 3d
       -0.022595983 0.056078903 -0.10504099 0.054660287
000110 5f e9 77 bc 6c ac cc bd 30 f1 81 3d f5 e5 78 bd
       -0.015131324 -0.09993824 0.06344831 -0.06076618
000120 0a d2 99 bd 06 90 cf bc 28 c7 f5 bb ff 82 e6 bd
       -0.07510765 -0.02533723 -0.007500548 -0.11255454
000130 09 64 e3 3a 05 f0 01 3d 6b bd 04 3d c0 93 f4 3d
       0.0017348538 0.03172304 0.032407206 0.119422436
000140 f4 51 c2 3d cf 8c 2f 3d 15 9e 7d bc 5f 76 8c 3d
       0.094882876 0.042858895 -0.015479584 0.06858515
000150 05 cf 47 bd 41 39 a3 bc 2b 30 4b 3d 22 55 73 bd
       -0.048781414 -0.019924762 0.049606483 -0.05940736
000160 0c 65 99 3c 4f 51 0d 3d c7 2e 0c bd 1a 29 10 3d
       0.01872494 0.03450137 -0.034224298 0.035195448
000170 58 cd 5b 3c be 53 50 bd c9 08 7e bd d4 a7 2e bc
       0.013415657 -0.050861113 -0.062020097 -0.0106601305
000180 59 42 9a bd 49 b5 97 bb 19 7c bf bd 8b 72 21 bd
       -0.07532186 -0.004629765 -0.093498416 -0.039415877
000190 43 65 54 3c fc 56 2d 3d 0e b7 08 bd 35 41 8b bd
       0.012963596 0.042319283 -0.0333777 -0.06799547
0001a0 71 a9 1e bd ba ef c9 3d 9b a3 92 3d d8 1e a6 ba
       -0.03873581 0.09860177 0.071601115 -0.0012673987
0001b0 9d 79 34 3d 63 65 2e bd 9d dc b0 bc 45 79 48 3c
       0.044061292 -0.04257716 -0.021589572 0.012235944
0001c0 4a e8 bd bd 77 a8 bc bc 46 1a 7c b9 1f 89 63 3c
       -0.09272821 -0.023029549 -0.0002404238 0.013887673
0001d0 7b 86 28 bd 10 00 83 bc 9c d3 fd bd b5 69 84 bd
       -0.041143876 -0.01599124 -0.12393877 -0.064654745
0001e0 d5 ae 65 bd 77 e8 ab bc ec 86 c5 3c ed a3 b2 3d
       -0.056074936 -0.020984871 0.024112187 0.087226726
0001f0 a4 d5 a6 bc d4 eb c1 bc 40 af 02 3e 5b 36 ed 3d
       -0.020365544 -0.023672022 0.12762165 0.11582633
000200 24 07 eb 3d fb e1 13 3d a2 1a b2 bc 17 48 7b 3d
       0.11475971 0.036104184 -0.021741215 0.061348047
000210 9f ba 17 bc 8c 1c 03 be 65 ad 34 bc 57 d4 de bd
       -0.0092608025 -0.12803859 -0.011027669 -0.10880344
000220 5f fe 14 3d 9f 48 c2 3c d8 c7 15 3d 1e 84 ab 3d
       0.0363754 0.023716269 0.03656754 0.08374809
000230 58 be 7e 3d ec 7c 18 bd cf 2c 87 3d 15 e3 56 3d
       0.062193245 -0.03722851 0.066003434 0.052462656
000240 ad 66 0c 3b 08 16 6b bd 74 26 70 bd 59 31 c8 bd
       0.0021423504 -0.057394058 -0.05863042 -0.09775037
000250 6f 77 e3 bd 0e 11 de bd 5a a1 1a bc 6b f4 a8 bd
       -0.111067645 -0.10843097 -0.009437883 -0.08249744
000260 fc 66 8a bd 25 fd 62 3d 67 15 5b bd 41 75 5c bd
       -0.06757924 0.0554172 -0.053487208 -0.05382276
000270 02 22 92 bc 58 04 df bd 10 a1 00 be 2e d2 8e bd
       -0.017838482 -0.108895004 -0.1256144 -0.06973682
000280 82 79 03 bd 9f 54 04 be ee 35 a4 3b 91 f5 53 bd
       -0.0320983 -0.12922905 0.0050113117 -0.051747862
000290 69 4f 0a be c2 18 a3 bd 00 45 10 bd 79 97 be bd
       -0.13506855 -0.079637066 -0.035222054 -0.09306235
0002a0 59 01 b0 3d c8 0d 90 3c a5 41 73 3d 4a 64 b2 bd
       0.08594007 0.017584696 0.059388775 -0.08710535
0002b0 ca 54 7c 3d 44 dc 90 bd 89 ab 49 bd 7a d9 24 3d
       0.0616043 -0.07073262 -0.049235854 0.040246464
0002c0 d6 8d 8f 3c 1e 6a 41 bd b7 c3 e5 3d 00 83 9b 3d
       0.017523687 -0.04722034 0.1121897 0.07593346
0002d0 80 a5 9e bc f1 f9 05 3d 39 bf dc bc e5 a7 b8 bd
       -0.019366026 0.032709066 -0.02694665 -0.09016398
0002e0 5c d3 e8 3c 0d f6 27 bc c4 7e ad bd fa ee 04 3e
       0.028421097 -0.010251534 -0.08471444 0.12981787
0002f0 ac ca ab 3d 3a cd 47 3d 86 58 95 3d 3b c0 1f 3d
       0.08388266 0.048779704 0.07292275 0.039001685
000300 bc 6a 2e bc 55 d4 41 3c 90 5a 59 bd 5f 74 c0 bd
       -0.010645565 0.011830409 -0.053064883 -0.09397196
000310 8a cb 24 bd d5 d1 4d bd 09 b3 b1 3c 4c b2 a8 bc
       -0.040233172 -0.05024894 0.021691816 -0.020592831
000320 ee 04 9b bd f5 68 29 bd 0a b8 6f bd ae ee 34 bd
       -0.075693 -0.04135986 -0.058525123 -0.044172935
000330 ab e4 8f bb 9c 22 31 bd e0 4f 8f bd bd 49 fd 3c
       -0.004391273 -0.043245897 -0.06997657 0.03091895
000340 80 8b 71 3c 20 ac 40 3c 20 f6 76 bd 4f bb 22 bd
       0.014742732 0.011759788 -0.060293317 -0.039729413
000350 44 cd b9 bb fd 08 3f bb 29 91 22 bd c2 66 85 bd
       -0.0056702215 -0.0029149645 -0.039689217 -0.0651374
000360 ab 40 78 bc ce 1e ec bc 6e 85 2e 3d f8 b5 d4 bc
       -0.015152137 -0.028823283 0.042607717 -0.025965676
000370 91 9f 63 bd cc c4 a7 3b 44 7f aa bd 69 77 5d bd
       -0.055572096 0.0051198956 -0.08325055 -0.054068957
000380 fb 84 81 3c fa 08 05 3d f8 97 47 3d 6a 88 02 bd
       0.01581048 0.032479264 0.048728913 -0.031868376
000390 44 79 a6 3c 4f c1 ac bd 71 d5 57 bd 89 f2 2b 3b
       0.020321496 -0.08435308 -0.052693788 0.0026237092
0003a0 1b d6 03 bc 9c 3e 27 bd b2 47 1a bd b5 9e 3f bb
       -0.008046652 -0.040831193 -0.03766603 -0.0029238884
0003b0 29 f1 f9 3c c3 a3 c7 bd b9 63 6e bc d5 24 a3 3b
       0.030510502 -0.09748032 -0.014550143 0.004978756
0003c0 b8 0a 99 bd e7 fd 19 3c d2 de 4c 3d c4 38 1a 3c
       -0.074727476 0.009398914 0.050017186 0.009412948
0003d0 c6 8d 85 3d 37 50 bc 3d 8b ab 23 bc 14 52 71 ba
       0.06521182 0.09194987 -0.0099896295 -0.0009205651
0003e0 3a 8c c9 3b 5d a0 fd bb cd 7b 9b 3d a9 9c 76 3d
       0.0061507495 -0.007740064 0.075919725 0.060207997
0003f0 3d 58 d4 bd bf f3 bb 3c cc 65 22 ba b6 af 73 bd
       -0.103683926 0.022943376 -0.00061949785 -0.059493743
